models/nn/multi-pred.pth (torch, 864358 bytes, 6 tensors)

layers.0.weight f4 [128, 1534]
0	0x3c10c64c	0.00883634
1	0x3ca90521	0.020632328
2	0x3c44bd81	0.012008072
3	0xba0bd09f	-0.0005333516
4	0x3ceee3c4	0.029161341
5	0xbd8a411d	-0.067507006
6	0x3d0b620d	0.034029055
7	0xbc68ce66	-0.0142093655
8	0xbd8b910b	-0.06814774
9	0xbbee1353	-0.007265487
10	0x3d1af53b	0.037831526
11	0xbd01adf5	-0.03166004
12	0x3d290cca	0.041271962
13	0x3c91b8fa	0.017788399
14	0xbc82cbd7	-0.015966339
15	0x3a3dc87f	0.0007239654
16	0xbd08f8c0	-0.03344035
17	0xbd3e9dc7	-0.046537187
18	0x3dd3df9f	0.10345387
19	0x3c493f26	0.012283122
20	0x3c3929ca	0.011301467
21	0x3d9c8d5b	0.07644149
22	0x3b946abb	0.004529325
23	0x3d3249d6	0.043527447
24	0xbbb991c6	-0.0056631295
25	0x3d2c3063	0.042038333
26	0x3bcfec36	0.006345297
27	0xbdb098af	-0.08622872
28	0x3cd4d7ce	0.02598181
29	0xbcc23f83	-0.023711925
30	0x3b81c74e	0.0039605265
31	0x3cf42154	0.029801048
32	0x3c07989c	0.008276131
33	0x3cdd92f7	0.027047617
34	0x3cf50e22	0.029913966
35	0xbd42a238	-0.047517985
36	0xbb8ce9ac	-0.004300317
37	0xbd5932d5	-0.053026993
38	0x3c8633ad	0.016382063
39	0xbc4311c8	-0.011906095
40	0x3cf52a14	0.029927291
41	0x3c87ddc4	0.016585238
42	0xbc07a135	-0.008278181
43	0xbb7ba32e	-0.0038396823
44	0xbc84a0b6	-0.016189914
45	0xbccb54cc	-0.024820708
46	0x3d07e3cc	0.03317623
47	0x3cf2c3a1	0.029634299
48	0xbc0a4408	-0.0084390715
49	0x3c9dfc35	0.0192853
50	0xbc40b461	-0.011761756
51	0xbc9bb3db	-0.01900666
52	0x3bbdb821	0.005789772
53	0x3c70f306	0.014706379
54	0xbb8743ce	-0.004127956
55	0xbbb571c5	-0.005537244
56	0xbb1b16cc	-0.002366471
57	0x3c60c7c3	0.013719502
58	0x3c36f9aa	0.011167923
59	0x3cf097a4	0.029369183
60	0x3b392e85	0.0028256488
61	0xbc1cd2a4	-0.009571705
62	0x3d7dcbb3	0.06196184
63	0x3ca647d5	0.020297924
64	0x3bb0fba2	0.0054010907
65	0xbd50efd4	-0.051009968
66	0x3d4e2985	0.050332565
67	0xbb45c0b0	-0.0030174665
68	0x3cc950ab	0.024574598
69	0x3971d1eb	0.00023061752
70	0x3c7999b6	0.015234401
71	0x3ce5fc24	0.028074332
72	0xbc8410a6	-0.01612122
73	0x3c86996d	0.016430581
74	0xbd815ed6	-0.06316917
75	0xbc82d49b	-0.015970519
76	0xbca4a154	-0.020096458
77	0x3c675b06	0.014120823
78	0x3b532e62	0.0032223691
79	0x3ca585e6	0.02020545
80	0x3bb4ec3c	0.0055213254
81	0x3cf06168	0.029343322
82	0xbd2b7530	-0.041859806
83	0x3da04ada	0.07826777
84	0xbcf5cb67	-0.030004216
85	0x3cf7315c	0.030174904
86	0xbc8dd4da	-0.01731341
87	0xbc56e53e	-0.013116179
88	0x3ac82b2a	0.0015271653
89	0x3c89c6b7	0.016818387
90	0x3cb245c4	0.021761782
91	0x3d49943b	0.04921363
92	0xbd015433	-0.03157444
93	0xbd82d520	-0.063883066
94	0x3c9ff629	0.019526558
95	0x3c58de77	0.0132366335
96	0x3cac66c5	0.021045098
97	0x39ae43eb	0.0003323847
98	0x3ca56172	0.020188067
99	0xba3c4dbf	-0.0007183216
100	0xbd590149	-0.05297974
101	0x3cbf99c3	0.023388749
102	0xbc664350	-0.0140541345
103	0x3c3a0374	0.011353362
104	0x3be81081	0.0070820455
105	0x3beed68e	0.0072887605
106	0xbc262e54	-0.010142881
107	0x3b910b5e	0.004426404
108	0xbc80f396	-0.01574115
109	0xbcf87b51	-0.03033224
110	0xbc18f274	-0.009335149
111	0xbd3c9708	-0.046042472
112	0xb99b606c	-0.00029635744
113	0xbca5aebc	-0.020224921
114	0xbca11390	-0.019662648
115	0xbd247ba8	-0.04015699
116	0x3c891d80	0.0167377
117	0x3d80eb7a	0.062949136
118	0xbbb36c88	-0.0054755844
119	0x3c12f38e	0.008969201
120	0x3d3aed78	0.045636624
121	0xbc70dbed	-0.014700872
122	0x3c23a8d3	0.009988981
123	0x3c84ff0c	0.016234897
124	0x3d5d674a	0.054053582
125	0xbd52dadc	-0.05147825
126	0xbbe2a142	-0.006916196
127	0xbcff8704	-0.03119231
128	0x3bc233e9	0.0059265983
129	0x3d97b61c	0.074077815
130	0xbc15fd89	-0.009154686
131	0x3c2bc990	0.010485068
132	0xba993b0e	-0.0011690573
133	0x3d2fa36a	0.042880453
134	0xbc0f4831	-0.008745239
135	0xbd92692f	-0.071489684
136	0x3c31ab1c	0.010844018
137	0x3d6f0142	0.05835081
138	0xbd43b57f	-0.04778051
139	0x3c6fd7c3	0.014638844
140	0xbc71adaf	-0.014750882
141	0x3be184f0	0.0068823025
142	0xbbc2dfc7	-0.0059470865
143	0x3bc28791	0.005936571
144	0xbd2e61ea	-0.042573847
145	0xbc87ad24	-0.016562052
146	0x3cde152a	0.027109701
147	0x3d40e700	0.0470953
148	0x3c912ba3	0.017721003
149	0x3bb94f7a	0.0056552263
150	0xbc4c2201	-0.012459279
151	0x3c7fc999	0.0156120295
152	0x3d203c78	0.039120167
153	0xbd6dc562	-0.058049567
154	0x3bdcaa7d	0.006734191
155	0x3d3d68ad	0.046242405
156	0x3c78f9c3	0.015196267
157	0xbbd8f27b	-0.006620703
158	0xbbd39838	-0.006457355
159	0xba90b1b5	-0.0011039289
160	0xbcce8998	-0.025212094
161	0x3d134843	0.035957586
162	0x3c8b3ec9	0.016997712
163	0x3bf05bba	0.0073351534
164	0x3cd4da60	0.025983036
165	0x3cd84c91	0.026403697
166	0xbb80eb6a	-0.0039343135
167	0xbca8e1af	-0.020615427
168	0x3b21ac7d	0.0024669461
169	0xbb7a57fc	-0.0038199415
170	0x3c9631d0	0.0183343
171	0xbd1956af	-0.037436184
172	0xbb1db462	-0.0024063815
173	0xbbed2f62	-0.0072383145
174	0x3d5df43f	0.05418801
175	0xbc1cca08	-0.009569652
176	0xbc138634	-0.0090041645
177	0xbd1e0229	-0.03857628
178	0xbd9a4fa2	-0.0753472
179	0x3cc5bfee	0.02413937
180	0x3d2a107b	0.041519623
181	0x3b92d85d	0.004481359
182	0xbda0c29d	-0.078496195
183	0x3bd0b71d	0.006369485
184	0xbbac66b4	-0.0052612666
185	0xbcb1cfe9	-0.021705585
186	0x3c924b9f	0.017858325
187	0x3d5b152d	0.05348699
188	0xbce3f20e	-0.027825382
189	0xbc741cc7	-0.014899439
190	0xbc69f08e	-0.014278544
191	0x3b8b2ce2	0.004247294
192	0xbdd6072b	-0.10450586
193	0x3c8c7f45	0.01715053
194	0x3b8b1ec4	0.004245611
195	0x3c667077	0.0140649
196	0xbd00635d	-0.03134476
197	0x3cfdfb0f	0.031003503
198	0x3b8136cf	0.0039433013
199	0x3bc17ce7	0.005904782
200	0xbb8af70e	-0.004240877
201	0x3bf6a1f7	0.007526632
202	0x3d3ce743	0.046118986
203	0xbc88bdc7	-0.016692055
204	0xbc7bccf2	-0.015368687
205	0x3d01e593	0.03171308
206	0x3ca14803	0.019687658
207	0xbb74b7a2	-0.00373409
208	0xbd1a2fee	-0.037643366
209	0xbcbdb8b9	-0.023159372
210	0x3c191173	0.009342539
211	0xbb69b03a	-0.0035658018
212	0xbcf7bcd5	-0.03024141
213	0x3ca27d64	0.019835182
214	0xbd0d35be	-0.03447508
215	0x3beaa040	0.0071602166
216	0x3d37995d	0.044823993
217	0xbb17b947	-0.0023151205
218	0x3c112670	0.008859262
219	0xbd4b470f	-0.049628314
220	0x3c180bfe	0.009280203
221	0xbb7061d6	-0.0036679409
222	0xbc4d9b35	-0.012549211
223	0xbd5456c3	-0.051840555
224	0xbca68740	-0.020328164
225	0xbcf3886f	-0.029728143
226	0xbccbaa28	-0.02486141
227	0xbdd68ad5	-0.10475699
228	0x3c2952fe	0.010334728
229	0xbc8d5611	-0.017252954
230	0x3dc836ab	0.09776052
231	0x3b05b441	0.002040163
232	0xbcde58f6	-0.02714203
233	0xbbbc24d6	-0.005741696
234	0x3d14a3e1	0.0362891
235	0xbcc9c494	-0.024629869
236	0x3cde0c02	0.027105335
237	0xbcb022f5	-0.021501044
238	0xbcf5af33	-0.029990768
239	0x3dba136a	0.09085734
240	0x3d7c819c	0.061647043
241	0x3d19cbcf	0.037547883
242	0x3d45aa9d	0.048258413
243	0xbd20ee38	-0.039289683
244	0xbd758acb	-0.059946816
245	0xb6a052e0	-4.7780195e-06
246	0xbcebe871	-0.02879736
247	0xbcb10181	-0.021607162
248	0x3aaf8ac9	0.0013392802
249	0x3d0a3600	0.033742905
250	0x3cb1afbf	0.021690248
251	0xbd83cb59	-0.0643527
252	0x3d054088	0.032532245
253	0x3b00580f	0.0019583737
254	0x3c889327	0.01667173
255	0xbd959052	-0.073029175

layers.0.bias f4 [128]
0	0xbc891e4f	-0.016738085
1	0xbcdf3b4c	-0.027249955
2	0xbcd1676c	-0.02556201
3	0xbc3b167e	-0.011418937
4	0x3cc59310	0.024117976
5	0xbc15f3f8	-0.009152405
6	0x3c239a3d	0.009985504
7	0x3c498f23	0.012302193
8	0x3cd19146	0.025581967
9	0xbc9d876e	-0.019229617
10	0xbcf2d9cf	-0.029644875
11	0xbd02cf1f	-0.031935807
12	0xbcc582b3	-0.024110174
13	0xbc1c81f4	-0.009552468
14	0xbc9d0f34	-0.019172288
15	0x3cb13bc8	0.021634951
16	0x3b69ac72	0.0035655764
17	0x3ca58b71	0.020208092
18	0xbc71e40b	-0.014763842
19	0xbc8046e6	-0.015658807
20	0x3c7c4212	0.015396612
21	0x3cd7edbe	0.026358481
22	0x3c559334	0.013035584
23	0xbc57f0e6	-0.013179993
24	0x3cd67cdb	0.026182583
25	0x3c76fa3e	0.015074311
26	0xbc0301ce	-0.007996036
27	0xbcca6ecb	-0.024711033
28	0x3b85c1b4	0.004081929
29	0x3c0347e1	0.008012743
30	0x3c1a577f	0.009420275
31	0xbce72ce4	-0.028219648
32	0x3c00e6d1	0.007867531
33	0xbcb4a3ed	-0.022050822
34	0xbcaf77e4	-0.021419473
35	0xbcdbac58	-0.026815578
36	0xbcd9e354	-0.026597656
37	0xbc9cd8f6	-0.019146424
38	0x3c74b638	0.014936022
39	0xbb8c71f5	-0.0042860457
40	0x3c90c2d8	0.017671034
41	0xbc8b3d5f	-0.016997037
42	0xbaac4895	-0.001314419
43	0xbb8c5f97	-0.004283856
44	0x3c075c29	0.008261719
45	0x3b503beb	0.0031773995
46	0xbc92031f	-0.017823754
47	0x3c812fba	0.015769828
48	0xbc3666ff	-0.011132955
49	0xbb758f6b	-0.0037469517
50	0x3c991514	0.018686809
51	0xbc0e7c69	-0.008696654
52	0x3b82e749	0.0039948565
53	0x3b3c1a67	0.002870226
54	0x3bfada9b	0.0076554543
55	0x3bfe878b	0.007767623
56	0x3c991c9d	0.018690402
57	0x37c7f014	2.3834444e-05
58	0xbc880cfa	-0.01660775
59	0x3c3dfe9b	0.011596347
60	0xbca9faf2	-0.020749543
61	0x3c100ae7	0.008791662
62	0x3cb732fb	0.022363177
63	0x3cb47f11	0.022033246
64	0x3c1ac176	0.009445539
65	0xbc3c88ce	-0.011507226
66	0xbc65233d	-0.013985452
67	0x3ce1ff9a	0.0275877
68	0x3ca5bc32	0.02023134
69	0xbb3f377d	-0.002917736
70	0xbc13252c	-0.00898103
71	0x3ccc7480	0.024957895
72	0x3cc51ea3	0.02406246
73	0xbc37e30b	-0.011223565
74	0x3b2de9b5	0.0026537005
75	0xba8c22b8	-0.0010691499
76	0xbcc9019e	-0.024536904
77	0x3b6842ae	0.0035440135
78	0x3c97b4d0	0.018518835
79	0x3c88c7b7	0.016696794
80	0xbc8c89df	-0.017155586
81	0x3be5291b	0.0069934255
82	0x3cde34be	0.027124759
83	0xbc280451	-0.010254935
84	0x3c40641e	0.01174262
85	0x3c90a52d	0.017656887
86	0x3c75d2d9	0.015003883
87	0xbcd4b08f	-0.025963096
88	0x3c87047c	0.01648163
89	0xbbf988f8	-0.007615205
90	0x3b8d04ec	0.0043035652
91	0xbc66e9f6	-0.014093867
92	0xbbcc5305	-0.0062354826
93	0x3c533075	0.012889971
94	0x3bfb2aa7	0.0076649967
95	0x3bbde8ec	0.0057955887
96	0xbb8708cd	-0.004120922
97	0x3bea3ca2	0.0071483413
98	0xbbe48aee	-0.0069745695
99	0xbc99a455	-0.018755117
100	0xbc192384	-0.0093468465
101	0xbbecfabb	-0.007232038
102	0x3bbec9b1	0.0058223833
103	0xbb6ad7e7	-0.0035834254
104	0xbcbedc10	-0.023298293
105	0xbced6cc5	-0.02898253
106	0x3b81ada2	0.003957466
107	0x3cba21c9	0.022721188
108	0x3c0aba0f	0.008467211
109	0xbccc6c8f	-0.024954109
110	0xbc24e9a8	-0.010065474
111	0xbc2139ef	-0.009840473
112	0x3c207998	0.009794615
113	0x3cb762ff	0.022386072
114	0xbcf59897	-0.029979987
115	0xbce0b194	-0.027428426
116	0xbc06cb19	-0.008227133
117	0xbc7518cf	-0.014959528
118	0xbc2f5634	-0.010701705
119	0xbce91d16	-0.028456252
120	0x3c9138be	0.017727252
121	0xbc778864	-0.015108202
122	0x3ad3649d	0.0016128008
123	0xbcdd354a	-0.02700295
124	0xbcf57a13	-0.029965436
125	0x3a0bb899	0.00053299364
126	0xbba23a36	-0.004950787
127	0xbbed4bdf	-0.0072417106

layers.1.weight f4 [128, 128]
0	0xbe2eb091	-0.17059542
1	0x3cca9da7	0.024733378
2	0x3a82a601	0.0009967686
3	0x3d344501	0.04401112
4	0x3d130b41	0.035899404
5	0x3e4345b2	0.19069555
6	0xbdaf9e45	-0.085751094
7	0xbd46351e	-0.0483905
8	0x3e65a052	0.22424439
9	0x3da78664	0.0817993
10	0x3c15f23d	0.009151992
11	0xbd35f033	-0.044418525
12	0xbd2e389d	-0.04253446
13	0x3e1e362c	0.15450352
14	0xbcff0e36	-0.031134706
15	0xbdb45f2c	-0.08807215
16	0x3d7ef433	0.062244605
17	0xbdf5638a	-0.11981876
18	0x3d2592f1	0.040423337
19	0xbd3f511f	-0.046708222
20	0x3e086956	0.13321432
21	0x3d216069	0.039398585
22	0xbd8a7baf	-0.06761872
23	0xbc40988b	-0.011755119
24	0x3d56c005	0.052429218
25	0xbd88c6be	-0.06678532
26	0x3d91f27e	0.0712633
27	0xbcb888bb	-0.022526136
28	0xbd1144a8	-0.035465866
29	0x3e8175ca	0.25285178
30	0x3d2ba034	0.04190083
31	0xbe1ecfc0	-0.15508938
32	0x3d927b52	0.07152428
33	0xbdd0e295	-0.10199467
34	0x3e79480e	0.24343893
35	0x3dd0bfa3	0.10192802
36	0xbd64e356	-0.055880867
37	0x3cb278de	0.02178615
38	0x3dbdb2dc	0.0926263
39	0x3e169c44	0.14708048
40	0x3d323b6a	0.043513693
41	0x3e26ead0	0.16300511
42	0x3daee662	0.08540036
43	0x3d86b26f	0.06577002
44	0x3d707728	0.058707386
45	0xbd752e23	-0.059858453
46	0x3d879cc1	0.06621695
47	0x3dc22d87	0.0948134
48	0xbe2516f5	-0.16122039
49	0xbd1a1346	-0.037616037
50	0x3ccdfacc	0.025144003
51	0xbdbdd407	-0.09268957
52	0x3e5a0f40	0.2129488
53	0xbc0c782e	-0.008573575
54	0x3e952b20	0.29134464
55	0x3d23e7d1	0.040016
56	0xbdb7eec2	-0.08981086
57	0x3d890afe	0.0669155
58	0xbc7ca462	-0.015420051
59	0x3d940452	0.072273865
60	0x3c4488f3	0.011995542
61	0x3ce30b64	0.027715392
62	0xbcccb6de	-0.024989542
63	0xbe34b960	-0.1764884
64	0x3d8cce82	0.06875326
65	0xbcc5383f	-0.024074672
66	0x3e49a67e	0.19692418
67	0x3d304232	0.04303188
68	0x3e1cb365	0.15302809
69	0xbcd15c74	-0.02555678
70	0x3df0e984	0.117632896
71	0x3b7c2e39	0.00384797
72	0x3e0706b5	0.13186152
73	0x3db3a3cd	0.08771477
74	0x3df22702	0.118238464
75	0x3d137e79	0.036009286
76	0xbe3d9d37	-0.18517004
77	0xbe3a075a	-0.18166867
78	0xbccb815d	-0.024841959
79	0xbca017f6	-0.019542675
80	0x3e4be4a3	0.19911437
81	0x3d573380	0.05253935
82	0xbdbacec9	-0.091214724
83	0xbd8286c0	-0.06373358
84	0xbc699c7a	-0.014258498
85	0x3d880c87	0.066430144
86	0x3d55a93a	0.05216334
87	0x3df53736	0.11973421
88	0xbdd0b48f	-0.10190689
89	0x3e0e1c7a	0.1387805
90	0x3cf57f63	0.02996797
91	0xbd89017d	-0.06689737
92	0x3d5dca6a	0.054148115
93	0xbe58c710	-0.21169686
94	0x3d473537	0.048634734
95	0x3c193161	0.009350152
96	0x3e43e483	0.19130139
97	0x3d348167	0.04406872
98	0x3e012a05	0.12613685
99	0x3d47a2d7	0.04873928
100	0x3da19d7d	0.07891367
101	0x3e5d21da	0.21594945
102	0xbdb897dc	-0.0901334
103	0x3c0a279a	0.008432293
104	0x3dd5da7e	0.10442065
105	0x3d815387	0.0631476
106	0x3d8de03f	0.06927537
107	0x3e672cc3	0.22575669
108	0xbe0c893b	-0.13724224
109	0xbd92f52b	-0.07175668
110	0x3d68b717	0.056815233
111	0x3d2416e7	0.040060904
112	0xbdcd8550	-0.10035193
113	0xbd948862	-0.072525755
114	0x3cc3655c	0.023852043
115	0x3d8a53f6	0.067542955
116	0xbd973d83	-0.07384779
117	0x3d408a83	0.047007095
118	0xbcb9ac47	-0.022665156
119	0xbe621053	-0.2207654
120	0x3d803a80	0.06261158
121	0x3d88dd33	0.066828154
122	0x3dd10029	0.10205109
123	0x3e10d5eb	0.14144103
124	0x3c15b96c	0.009138446
125	0xba28b5e1	-0.00064357935
126	0xbd50fa9d	-0.051020253
127	0xbd843d66	-0.06457023
128	0x3e027e49	0.12743486
129	0x3d3ab467	0.0455822
130	0xbc50cf3e	-0.012744723
131	0xbd0769d3	-0.033059906
132	0x3e6e1e41	0.23253728
133	0x3a58d8c3	0.0008272046
134	0x3e504c9c	0.20341724
135	0x3e77ecc4	0.24211413
136	0x3da23ee7	0.07922154
137	0x3d052dfe	0.032514565
138	0xbd0fd5de	-0.03511607
139	0xbc1c1453	-0.00952633
140	0x3e09e6b4	0.13466913
141	0x3d9bdf76	0.07610981
142	0x3e331ca0	0.17491388
143	0x3e2c63e2	0.16834977
144	0x3da7018a	0.081545904
145	0xbd5a854a	-0.05334977
146	0x3de2b3c7	0.11069446
147	0x3d8ee814	0.06977859
148	0xbd7100ca	-0.058838643
149	0xbdace0f6	-0.084413454
150	0x3e0ececa	0.13946071
151	0x3e2f2276	0.1710299
152	0xbd7a7bf5	-0.06115337
153	0x3d82f294	0.06393924
154	0x3d0697c8	0.032859594
155	0xbd9253cf	-0.071448915
156	0xbd7be3a4	-0.061496392
157	0x3d656fb8	0.056014746
158	0x3dc101af	0.09424149
159	0x3ca470e0	0.020073354
160	0x3c360c4f	0.011111333
161	0x3d1a5ff3	0.03768916
162	0xbe8d0aa7	-0.2754719
163	0x3de6539d	0.11246417
164	0x3d22bbb9	0.039729808
165	0xbd975d3f	-0.07390832
166	0x3bd2c318	0.0064319484
167	0xbcc0d383	-0.023538357
168	0x3d8298a7	0.063767724
169	0xbd65b2ca	-0.05607871
170	0x3e2cf07e	0.16888615
171	0x3d351d06	0.044217132
172	0xbdcf712b	-0.10129007
173	0x3d88cbc8	0.06679493
174	0x3e19b223	0.1500936
175	0xbbe1d931	-0.0068923463
176	0xbde73b7e	-0.11290644
177	0x3d854b12	0.06508459
178	0xbd174c06	-0.036937736
179	0x3d3781a3	0.044801366
180	0x3e413247	0.18866836
181	0xbd44a6c3	-0.0480106
182	0x3dcea02b	0.10089143
183	0x3db0bfd4	0.08630338
184	0xbd4f7a64	-0.05065383
185	0x3d189f44	0.037261263
186	0xbdf8f218	-0.12155551
187	0x3d1320df	0.03592002
188	0xbba45522	-0.0050150314
189	0x3e6f75b4	0.23384744
190	0x3eb3c489	0.35110882
191	0xbce3f132	-0.027824972
192	0x3e214037	0.15747152
193	0x3a107b99	0.00055115815
194	0xbcefd1f8	-0.029274926
195	0x3dc748e5	0.097307004
196	0x3d411384	0.047137752
197	0x3daa88c8	0.0832687
198	0xbd8588c5	-0.06520227
199	0xbd32881b	-0.04358683
200	0xbd9635aa	-0.07334454
201	0xbda7f8cf	-0.08201753
202	0xbdaf58e3	-0.08561876
203	0xbdba962a	-0.09110673
204	0xbdcbc703	-0.09950068
205	0xbe1b42d5	-0.15162213
206	0x3dd63ba6	0.10460596
207	0x3ea4ec9a	0.32211763
208	0x3df6ba16	0.12047212
209	0x3d759dbc	0.05996488
210	0x3c626e85	0.013820295
211	0x3e085a05	0.1331559
212	0xbdb30455	-0.08741061
213	0xbd9b086e	-0.07569967
214	0x3e111c51	0.14170958
215	0xbe7d607d	-0.24743839
216	0x3e20eb37	0.15714727
217	0xbd5e55ea	-0.054281153
218	0x3c94e2fc	0.01817464
219	0xbd6e408b	-0.05816702
220	0x3ccc7377	0.024957402
221	0x3c426f99	0.011867427
222	0x3d45006f	0.048096117
223	0xbd01d81f	-0.03170025
224	0x3d77476e	0.060370855
225	0xbe24054b	-0.16017644
226	0x3cdc9bad	0.0269297
227	0xbd2ea8ed	-0.04264157
228	0x3e4803e7	0.19532739
229	0x3e1969e9	0.14981808
230	0xbda79209	-0.08182151
231	0xbe52b723	-0.20577674
232	0x3ddad684	0.10685447
233	0xbcdf5472	-0.027261946
234	0x3d6f1837	0.058372702
235	0x3db28bb5	0.08718053
236	0x3d0735bc	0.03301023
237	0x3d2c7acc	0.042109296
238	0x3d3ad105	0.045609493
239	0x3c952a51	0.018208655
240	0xbde09940	-0.1096673
241	0x3e1da24b	0.15393941
242	0x3cf1457f	0.029452084
243	0xbda730d5	-0.08163611
244	0xbc86e814	-0.016468085
245	0xbd400f02	-0.046889313
246	0x3d5e44ca	0.05426482
247	0xbda83b43	-0.08214428
248	0x3d71256e	0.058873586
249	0xbe0f011d	-0.13965268
250	0xbe2ba71f	-0.1676297
251	0xbde6a548	-0.11261994
252	0xbc406af6	-0.0117442515
253	0xbd88ba7c	-0.06676194
254	0xbddfda82	-0.10930349
255	0xbd8508cc	-0.064958185

layers.1.bias f4 [128]
0	0xbd86ef3c	-0.06588599
1	0x3d9a783c	0.07542464
2	0xbcd689c0	-0.026188731
3	0x3dae3603	0.08506396
4	0x3b8323cc	0.00400207
5	0x3af7b4a2	0.0018898437
6	0x3dcdfdaa	0.10058148
7	0x3dc9c582	0.09852125
8	0xbd430b1c	-0.047618017
9	0xbdfb222f	-0.122623794
10	0x3ddd0d03	0.107934974
11	0xbc93e10c	-0.018051647
12	0xbd884151	-0.06653083
13	0xbd0fc695	-0.035101492
14	0x3d407ca2	0.04699386
15	0x3d18f53e	0.037343256
16	0x3dac73eb	0.08420547
17	0x3c9a7666	0.018855285
18	0x3d8f183d	0.06987045
19	0x3cd52387	0.026017917
20	0x3c0fac2e	0.008769078
21	0xbcfc8450	-0.03082481
22	0xbc829ecf	-0.015944866
23	0x3ce9338a	0.028466959
24	0xbc79d0e8	-0.015247561
25	0x3d90e408	0.070747435
26	0x3dacf2e8	0.08444768
27	0x3c47d281	0.012196184
28	0xbd439540	-0.047749758
29	0x3d2cfe60	0.04223478
30	0x3c423141	0.011852563
31	0xbb2752f2	-0.0025531617
32	0xbd3768f5	-0.04477783
33	0x3d3bfe39	0.045896742
34	0x3c1d7aa9	0.009611764
35	0x3dd96a85	0.1061602
36	0xbd55c01d	-0.052185167
37	0xbd1017f9	-0.035179112
38	0x3d3cd406	0.04610064
39	0x3cd248c3	0.025669461
40	0x3ca55e01	0.020186426
41	0x3de0bd7c	0.10973641
42	0xbd4a5dd1	-0.049405877
43	0xbc946f30	-0.018119425
44	0x3d5157cf	0.05110913
45	0xbc6a0aad	-0.014284772
46	0x3dc32d51	0.09530128
47	0x3a0417a1	0.00050389214
48	0x3dd31b8d	0.10307989
49	0x3ddfadf8	0.10921854
50	0x3c8b6adc	0.017018728
51	0x3d601576	0.054707967
52	0x3dc8a4ba	0.09797044
53	0xbd4eb11c	-0.050461873
54	0x3ca86541	0.020556094
55	0x3de15246	0.110020205
56	0x3d8de25e	0.06927942
57	0x3d8c86d8	0.06861657
58	0x3dada071	0.084778674
59	0x3d9b0157	0.07568615
60	0xbb7a384a	-0.0038180524
61	0x3dc4e163	0.096133016
62	0x3de43888	0.11143595
63	0xb96d0b3d	-0.00022606268
64	0x3e10ab62	0.14127877
65	0x3d69b33b	0.057055693
66	0x3dae3e64	0.08507994
67	0x3d52b420	0.05144131
68	0x3d8c1d20	0.06841493
69	0xbc18433f	-0.0092933765
70	0xbbff806b	-0.007797291
71	0x3dcfd2f1	0.10147656
72	0x3defe2c5	0.11713175
73	0x3d27c4aa	0.040959038
74	0x3e02a9c1	0.12760068
75	0x3ddc2354	0.10748926
76	0x3cdd5f9a	0.027023125
77	0x3cba169a	0.022715855
78	0x3d8bbac8	0.06822735
79	0x3d137651	0.036001507
80	0x3de30ff8	0.1108703
81	0x3be71e62	0.0070531825
82	0x3bf5bdec	0.007499447
83	0xbd8684fb	-0.06568333
84	0x3c6d0e7c	0.014468785
85	0x3d6d1714	0.057883337
86	0x3dd1617b	0.10223671
87	0x3dc68394	0.09693065
88	0x3d223b55	0.039607365
89	0x3decf80b	0.11570748
90	0x3e006ab3	0.12540703
91	0xbe3e099f	-0.18558358
92	0xbd1825ce	-0.03714543
93	0x3c17d627	0.0092673665
94	0x3cc49dff	0.02400112
95	0x3c90a35a	0.017656017
96	0xbd32165c	-0.043478355
97	0x3ddf5ea6	0.10906725
98	0x3d607384	0.054797664
99	0xbe39b1c1	-0.18134214
100	0x3e01c379	0.12672223
101	0x3d7ec28c	0.062197253
102	0x3dd7c12d	0.10534892
103	0x3d24930a	0.04017929
104	0x3caa9c48	0.020826474
105	0x3cb2a5b4	0.021807529
106	0x3d35dde8	0.04440108
107	0x3db21c5d	0.08696816
108	0x3dc44648	0.095837176
109	0xbced5f1a	-0.028976012
110	0x3a9d32b6	0.0011993262
111	0x3d08ad36	0.03336831
112	0x3d22fd3a	0.039792277
113	0xbda96773	-0.082716845
114	0x3dff3b82	0.12462522
115	0x3d8d0278	0.068852365
116	0x3d0353db	0.032062393
117	0x3ddb3237	0.10702937
118	0x3e1c2b3f	0.15250872
119	0xbca75220	-0.020424902
120	0xbcf6e604	-0.030138977
121	0x3d1b2851	0.037880246
122	0xbd51bbbb	-0.051204424
123	0x3cf9d3cd	0.030496502
124	0x3d92d856	0.07170169
125	0xbd034121	-0.032044534
126	0x3cd29e1d	0.02571016
127	0x3d8c082a	0.06837495

out.weight f4 [18, 128]
0	0x3d12e710	0.03586489
1	0xbd569674	-0.052389577
2	0x3de08397	0.10962599
3	0xbe4335b7	-0.1906346
4	0x3d5a03d3	0.053226303
5	0x3de3c11e	0.111208186
6	0x3e39f33d	0.18159194
7	0x3d4d9b8b	0.050197165
8	0xbd99e764	-0.075148374
9	0xbd8cf307	-0.06882291
10	0xbe0f0d60	-0.13969946
11	0xbe97cc8f	-0.29648253
12	0x3df62fff	0.12020873
13	0x3b0d3df4	0.002155182
14	0x3daa69a1	0.08320928
15	0xbec66dae	-0.38755554
16	0x3d2f66b5	0.04282256
17	0xbd456652	-0.048193283
18	0xbd292b2b	-0.041300934
19	0xbd970226	-0.07373457
20	0x3dcfca79	0.101460405
21	0x3d157581	0.036489014
22	0xbe0b52c7	-0.13605796
23	0xbe47bc94	-0.1950553
24	0x3d80fd36	0.06298296
25	0xbd492028	-0.049102932
26	0xbe30ac58	-0.17253244
27	0x3d690a29	0.056894455
28	0xbda3836f	-0.07984053
29	0xbda9a0b8	-0.08282608
30	0x3e490f7c	0.19634813
31	0x3d67f190	0.056626856
32	0xbdfa7724	-0.122297555
33	0xbdf49a66	-0.11943512
34	0xbbee8807	-0.0072793993
35	0xbd52723b	-0.05137847
36	0x3d2b7457	0.041858997
37	0x3d2d576b	0.042319696
38	0xbd6c949b	-0.05775891
39	0x3dd42836	0.10359232
40	0xbb1b96ab	-0.0023740928
41	0x3dd472cc	0.10373458
42	0xbd31aa00	-0.043375015
43	0xbdc51eb2	-0.09624995
44	0xbe19defa	-0.15026465
45	0xbe494ebe	-0.19658944
46	0xbe05181e	-0.12997481
47	0x3dc04ae4	0.09389284
48	0xbe221c3a	-0.1583108
49	0xbc59cb4a	-0.013293097
50	0x3d8699de	0.065723166
51	0xbe609082	-0.21930125
52	0xbd8a2f72	-0.06747331
53	0xbb7b9daf	-0.0038393547
54	0x3de72625	0.11286572
55	0xbe4c375b	-0.19942991
56	0xbdbc3b51	-0.09191001
57	0x3dce874f	0.10084402
58	0xbe3731ec	-0.17890137
59	0x3d70f5ff	0.05882835
60	0xbe50ab91	-0.20377947
61	0x3d5580e5	0.052124877
62	0x3e35bf66	0.17748794
63	0xbe667d4b	-0.22508733
64	0xbe0c9942	-0.13730338
65	0xbdc7aa42	-0.09749271
66	0x3d812286	0.06305413
67	0x3ddabfee	0.10681139
68	0xbe44b6de	-0.19210383
69	0x3d17a1e9	0.037019644
70	0x3df1ec12	0.11812605
71	0x3cfaaf11	0.030601056
72	0x3d88f4fa	0.066873506
73	0xbda71af3	-0.08159437
74	0x3c8f8b01	0.017522337
75	0x3ca7d28b	0.020486137
76	0xbe22b36a	-0.15888754
77	0x3d0e4f2b	0.03474347
78	0xbe172d01	-0.14763261
79	0x3e0e2668	0.13881838
80	0xbebcf165	-0.3690292
81	0x3dfc644d	0.12323818
82	0xbe3b2330	-0.18275142
83	0x3d2b807e	0.041870587
84	0xbe53cf95	-0.20684655
85	0x3d78d4d4	0.060749844
86	0xbe69efbf	-0.22845362
87	0xbbc7db79	-0.006099161
88	0xbe25baee	-0.1618459
89	0x3e20daea	0.15708509
90	0x3e37e0f5	0.17956908
91	0xbe23e130	-0.16003871
92	0x3d4e83b1	0.05041856
93	0x3d454fc1	0.048171762
94	0x3e85fc9b	0.26169285
95	0xbd5a73da	-0.05333314
96	0xbe38bb72	-0.18040255
97	0x3dbfd704	0.09367183
98	0xbe15512b	-0.14581744
99	0x3ce27d12	0.027647529
100	0xbd989921	-0.07451082
101	0x3d955a27	0.07292586
102	0x3c3bd9d1	0.011465506
103	0xbdbcc13f	-0.09216546
104	0x3cd1ff81	0.02563453
105	0xbe4cc2d2	-0.19996193
106	0x3d474d2b	0.048657577
107	0xbce3da54	-0.027814068
108	0x3d646410	0.05575949
109	0x3d416d4b	0.04722337
110	0x3d57e297	0.052706327
111	0xbdd52b96	-0.10408704
112	0xbd58a6ba	-0.052893378
113	0x3c0bf274	0.008541692
114	0xbddb09c4	-0.10695222
115	0xbd2376f7	-0.039908376
116	0x3dfffbff	0.12499236
117	0xbc277809	-0.01022149
118	0xbe14acfb	-0.14519112
119	0x3d162b36	0.036662303
120	0x3e06837b	0.13136093
121	0x3d87a5b8	0.06623405
122	0xbd8a79a1	-0.0676148
123	0xbdfd2119	-0.123598285
124	0xbe122afe	-0.14274213
125	0xbdb36973	-0.08760347
126	0xbd825af7	-0.063650064
127	0x3e01b367	0.12666093
128	0x3db394e2	0.087686315
129	0x3dfa77f4	0.122299105
130	0x3dea3d60	0.114374876
131	0xbe1c8333	-0.15284424
132	0xbdbdbf60	-0.092650175
133	0xbe3d0ef1	-0.18462731
134	0xbdbc58c8	-0.09196621
135	0x3d767309	0.0601683
136	0x3d5ab3aa	0.053393997
137	0x3d35827f	0.044313904
138	0xbcaeb440	-0.021326184
139	0xbe26ba08	-0.16281903
140	0xbd5b80cd	-0.05358963
141	0xbc5dcb3c	-0.013537224
142	0xbd94aa1d	-0.07259009
143	0xbe19a89e	-0.15005729
144	0xba0a596b	-0.00052776065
145	0x3e0a69d4	0.13516933
146	0x3db9943b	0.09061476
147	0x3d9723c9	0.07379872
148	0x3d5fc92b	0.054635208
149	0x3de3488d	0.11097822
150	0x3e1fdb2f	0.15610956
151	0x3d7433fa	0.05961988
152	0xbca4a7bd	-0.020099515
153	0xbd18879a	-0.037238695
154	0xbd602e84	-0.05473186
155	0xbd9c5ea4	-0.07635239
156	0xbce9c62c	-0.028536879
157	0xbe85400c	-0.26025426
158	0xbcb64f52	-0.02225462
159	0xbe23eea2	-0.16009
160	0x3d9b946d	0.07596669
161	0x3e056141	0.1302538
162	0xbd155e43	-0.036466848
163	0xbda9d46b	-0.08292469
164	0xbcaefda5	-0.021361182
165	0x3d907d62	0.07055165
166	0x3db4287b	0.087967835
167	0xbe811a48	-0.25215364
168	0xbdc88be0	-0.09792304
169	0xbdfddb32	-0.12395324
170	0xbdaf07f6	-0.0854644
171	0x3d8dcfe6	0.06924419
172	0x3e0bba84	0.13645369
173	0xbe050ef3	-0.12993984
174	0x3cbc5b32	0.022992704
175	0xbe319214	-0.1734088
176	0x3ced2ca4	0.02895195
177	0xbe635813	-0.22201566
178	0xbe360fc1	-0.17779447
179	0xbdd4cde5	-0.10390834
180	0xbcb2e745	-0.021838794
181	0x3cdce514	0.026964702
182	0xbe366bf0	-0.17814612
183	0xbe2e1a41	-0.17002203
184	0xbd60334e	-0.054736428
185	0xbd8dc170	-0.06921661
186	0x3dd21a50	0.10258925
187	0xbdd2ac61	-0.10286785
188	0x3dab1785	0.08354095
189	0x3d8cb4ed	0.06870446
190	0x3c040503	0.0080578355
191	0x3e12cbd6	0.1433557
192	0xbdc78e2f	-0.09743916
193	0xbc40a395	-0.011757751
194	0x3d383cd9	0.044979904
195	0xbdce1a93	-0.100636624
196	0x3d7fa70c	0.062415168
197	0x3e2fa1e7	0.17151605
198	0x3e1d455d	0.15358491
199	0x3d7cb5f5	0.061696965
200	0x3e1d5f9c	0.15368503
201	0x3de77cf8	0.11303133
202	0x3d1a80b3	0.037720393
203	0xbdca1329	-0.09866936
204	0xbdfb7fce	-0.12280236
205	0xbd0cb3b9	-0.034351084
206	0xbe0be702	-0.13662341
207	0xbe2b90a2	-0.16754392
208	0xbe51b4f7	-0.20479189
209	0xbe0c3b5f	-0.13694523
210	0xbd82fb5d	-0.063956
211	0xbd2cb51d	-0.04216491
212	0xbe6b183e	-0.22958466
213	0x3df65d85	0.12029556
214	0x3cb1efa2	0.021720711
215	0x3de2f386	0.11081605
216	0xbdd17977	-0.10228246
217	0xbe8133b8	-0.2523477
218	0x3e6e9f3a	0.23302928
219	0x3cc762b7	0.024339063
220	0xbe0b1a80	-0.13584328
221	0x3ae42c93	0.0017408304
222	0x3e02a423	0.12757926
223	0xbe017b42	-0.12644675
224	0xbe12cbc8	-0.14335549
225	0xbdccfc2a	-0.10009034
226	0x3dddce04	0.1083031
227	0x3e04bef8	0.12963474
228	0x3db158ef	0.08659541
229	0x3c80ab59	0.015706705
230	0xbc8cef24	-0.017203875
231	0xbd9065aa	-0.07050641
232	0x3d8c8232	0.0686077
233	0xbd64bb58	-0.055842727
234	0xbd14bf33	-0.036315154
235	0xbe420cfb	-0.18950264
236	0xbe2dcf2e	-0.16973564
237	0x3e2b60f7	0.16736208
238	0x3dca5f97	0.098815136
239	0xbe420227	-0.18946134
240	0x3e01745e	0.12642047
241	0x3cde06a3	0.027102774
242	0x3dab7943	0.08372738
243	0xbc81f8e1	-0.015865745
244	0xbd7528ed	-0.059853483
245	0xbe01766c	-0.1264283
246	0xbdc005c5	-0.093761005
247	0xbcce1252	-0.02515522
248	0xbd7de69e	-0.06198751
249	0xbc36c0ee	-0.011154396
250	0xbdeb53bb	-0.1149058
251	0xbcc268dc	-0.023731641
252	0xbed92b9d	-0.42416087
253	0xbd4b0407	-0.049564388
254	0xbe24f210	-0.16107965
255	0x3e468ae7	0.19388925

out.bias f4 [18]
0	0x3c5d186c	0.013494592
1	0xbc387f62	-0.011260839
2	0xbaef44ad	-0.001825472
3	0x3ccd6084	0.025070436
4	0xbd984e7a	-0.07436843
5	0x3d83d814	0.06437698
6	0xbd0a61be	-0.03378462
7	0x3d7dc89d	0.061958898
8	0x3b9a497f	0.0047084684
9	0x3d050bb8	0.03248188
10	0xbda395cd	-0.079875566
11	0xbd91693d	-0.07100151
12	0x3cf4fd82	0.029906038
13	0xbbba404d	-0.005683935
14	0xbc60f4c7	-0.0137302345
15	0x3d074fc9	0.033035073
16	0xbd1cce52	-0.0382827
17	0x3d34746b	0.044056337
