models/v2/jockey_result_AE.pth (torch, 252780 bytes, 86 tensors)

encoder_gru.weight_ih_l0 f4 [54, 20]
000000 7a 7d c2 bc c4 d0 82 3d c5 86 70 3e 79 60 2e 3e
       -0.023741473 0.06387475 0.2348891 0.17028989
000010 e8 39 4a 3d 0e 06 ed bd 2d ab 8f 3d b3 6b 1e be
       0.04937163 -0.115734205 0.07015071 -0.15470771
000020 09 3b 03 be fd 6e 1d be 18 db dc 3d 77 3b 34 3e
       -0.12815489 -0.1537437 0.10783976 0.17600809
000030 36 b5 84 be b7 2a 3c 3e 95 e9 7f be 8c a8 30 3d
       -0.25919503 0.1837567 -0.24991448 0.04312949
000040 dd 64 1e 3e 22 54 06 be 1d 70 04 bd 4a 7e 0c 3e
       0.15468164 -0.13118032 -0.032333482 0.1372005
000050 d0 a7 5d be ad 02 b3 3b d7 5c ed 3d 5c 59 47 3e
       -0.21646047 0.0054629655 0.115899734 0.19467682
000060 94 95 21 3e 23 c9 f1 bd c2 93 f9 ba 7e fe d4 3d
       0.15779716 -0.11805942 -0.0019041228 0.10400103
000070 a8 8c 77 3e 3c 20 a2 bc 8e 54 49 bb 11 55 29 3e
       0.2417475 -0.019790761 -0.0030720565 0.16536357
000080 37 69 7c 3e 69 e4 1f 3e 74 8b 2f bd 33 22 0d be
       0.24649511 0.15614475 -0.042857602 -0.13782577
000090 2f f6 99 bc 2e cd 6a be 3a 6e 13 3e 91 1b b5 bc
       -0.018794147 -0.22929832 0.14397517 -0.022107871
0000a0 16 aa 30 3e 07 4d 07 3d 91 ca 41 be 32 a5 3b bd
       0.17252383 0.033032443 -0.18924929 -0.04581184
0000b0 b9 66 ad 3d 22 07 a1 bd d4 47 27 3e 84 cd 49 3e
       0.084668584 -0.078626886 0.16335994 0.19707304
0000c0 02 85 c6 3d 34 24 00 be d3 d7 0b bd 49 57 91 bd
       0.09693338 -0.1251381 -0.034141373 -0.070967264
0000d0 7c dd 74 3d 6c 48 72 be 0e f7 89 3a f0 c0 fc 3d
       0.059781536 -0.23660439 0.0010525899 0.123414874
0000e0 85 89 3c 3e 4a 2f ce 3d f3 47 67 be b1 08 b0 bd
       0.18411835 0.100676134 -0.2258604 -0.08595408
0000f0 18 5c 7b 3e 9d b3 54 3e 20 01 21 3e 78 9c ab bd
       0.2454685 0.20771642 0.15723085 -0.083794534
000100 18 db f0 bd 4e 51 bb bd f9 8b 97 3d 4b 60 64 3e
       -0.11760539 -0.09146367 0.073997445 0.22302358
000110 22 ea 13 bd 04 ea b6 bd 9b 6f 33 bd 44 15 1e be
       -0.03611196 -0.08931354 -0.043807607 -0.154378
000120 0b c8 67 be b0 dd 82 3d ff 06 37 bd 2b 25 e2 bd
       -0.22634904 0.0638994 -0.044684406 -0.110422455
000130 38 37 ae 3c b9 e1 95 3d da b7 15 3c 03 55 42 bd
       0.021266565 0.07318444 0.009138072 -0.047444355
000140 33 cc 30 be a0 da 87 3d 94 25 08 be 78 e9 78 bd
       -0.17265396 0.06633496 -0.13295585 -0.06076953
000150 93 1b 2b 3e 4a ce de bc cb 1d f3 bd 98 b3 0b be
       0.16709737 -0.027197976 -0.11870917 -0.13642728
000160 db f5 35 be bb 81 70 3d d8 17 18 3e c9 14 4e be
       -0.17769568 0.05871747 0.14852846 -0.20125116
000170 3d 0f b8 bd 11 64 14 be 11 1c 3d 3e 5e 76 1e be
       -0.089872815 -0.14491297 0.18467738 -0.15474841
000180 dd 42 22 be d9 18 63 bd 5a 00 94 be 1a 5a 46 3e
       -0.15845819 -0.05544362 -0.28906518 0.19370309
000190 e2 34 96 3d 5b 82 8c 3d 0f 80 84 3d c6 72 45 be
       0.07334305 0.06860801 0.06469738 -0.19282064
0001a0 55 4d 2f be bc 1f bc 3d 03 63 18 3e f2 e0 ca bd
       -0.17119344 0.0918574 0.1488152 -0.09906186
0001b0 6e 21 24 be a2 4c eb 3d 50 f3 d6 bd 2f 3d a1 3b
       -0.16028377 0.11489226 -0.10495627 0.0049206237
0001c0 80 b3 e5 3d 26 76 23 be 99 1a 95 3d 03 75 88 bd
       0.112158775 -0.15963039 0.07280464 -0.06662943
0001d0 ad 4d 5c be 1f a9 b2 ba 32 f3 ac be 52 7a 90 be
       -0.21514006 -0.0013630724 -0.33779293 -0.28218323
0001e0 83 4a e8 bc 5e ef 8b 3d d1 de 52 3e 87 60 03 3d
       -0.028355842 0.06832765 0.2059281 0.032074478
0001f0 00 5d 81 3e af af 83 3d 2b 43 40 be c7 b2 90 bd
       0.25266266 0.06429993 -0.18775623 -0.07065349
000200 64 65 d6 3d 64 e6 2b be d0 fd 93 bd b4 fc 3f 3e
       0.104685575 -0.16787106 -0.07226145 0.18748742
000210 fc d5 36 be 06 d9 4f 3e 12 7e 6e 3e 44 5b 2f 3e
       -0.17855066 0.20297632 0.2329028 0.17124659
000220 a6 f2 b7 3e a4 42 a8 bd bc fd f6 3d 3b 2b 48 3e
       0.35927314 -0.08215836 0.12060115 0.19547741
000230 4e 95 d1 3c eb c3 00 3e 88 66 e1 ba 3a c8 27 3e
       0.02558389 0.12574737 -0.0017196694 0.16384974
000240 b8 88 fc 3d 20 c6 54 3e 8f 93 46 be 77 f4 24 3e
       0.123307645 0.20778704 -0.19392227 0.16108881
000250 87 22 dd 3d 11 f7 fc 3d 0a 28 9d 3d 53 c5 dd bc
       0.10797601 0.12351812 0.076736525 -0.02707163
000260 53 f3 d9 3d 0b 19 b9 3c c7 89 06 3e 25 1d 5e be
       0.106421135 0.02259495 0.13138495 -0.21690805
000270 b9 36 3a be e8 fa 20 be 2f ad 83 3d e9 b5 fc bc
       -0.18184938 -0.15720713 0.064295165 -0.03084846
000280 75 41 95 be 39 df 11 be c9 43 90 bd f3 77 36 3d
       -0.29151502 -0.14245309 -0.07044179 0.044547986
000290 38 55 3e be d4 28 19 be 46 99 62 3c b7 0a 06 be
       -0.18587196 -0.14956981 0.013830489 -0.13090025
0002a0 ec 61 1c 3e 8e 5c 27 be f9 45 a6 3d 3e 0d 0c be
       0.15271729 -0.163439 0.08118815 -0.13676926
0002b0 87 6b cd 3d a2 e3 36 3e fc 9c 41 3c 79 dd ed bb
       0.10030275 0.17860273 0.011817213 -0.0072590676
0002c0 8c 02 58 3e 2c 33 ab bd 54 af 0f be b6 86 7f 3d
       0.21094722 -0.0835937 -0.14031726 0.06238433
0002d0 56 62 24 bd 27 31 4c 3b 7d e0 11 3e d0 14 8b 3d
       -0.040132843 0.0031157227 0.14245792 0.06791079
0002e0 2c 47 98 3d 50 54 c6 bd b4 ee 8a be 6b 19 8d be
       0.0743545 -0.0968405 -0.2713524 -0.27558455
0002f0 b0 45 c6 3c d5 45 4c be 58 bd d0 3d b8 8d cc 3d
       0.024203151 -0.19948514 0.101923645 0.09987968
000300 9e 2d 99 3d cb 0e b7 bd 53 df 15 3d aa ae 61 be
       0.07479404 -0.089383684 0.03658993 -0.22039285
000310 e5 b9 88 be fe fb 06 3d 84 b8 69 bc d5 e2 25 3b
       -0.26704326 0.032955162 -0.014265183 0.0025312204
000320 16 e6 41 be 8c 14 d7 3d ed 5a 20 3d 46 42 85 bd
       -0.18935427 0.10501966 0.039149214 -0.06506781
000330 2d 46 16 be 25 ba 41 be 0a a5 e9 3c 1a 39 8b 3e
       -0.14675207 -0.18918665 0.02852108 0.27192003
000340 6e 78 97 bd 24 d9 b5 bd 7b e1 a2 3d f5 d7 ad bd
       -0.07396017 -0.08879307 0.07953163 -0.08488456
000350 f9 70 f6 bd 06 41 a8 3c e9 ff 4b be 92 e9 40 be
       -0.120332666 0.020538818 -0.1992184 -0.188391
000360 2a 0a ab 3e a8 47 75 3e 88 98 47 3e f0 93 25 bd
       0.33406192 0.23953116 0.1949178 -0.040424287
000370 9b 47 50 3e f2 e5 9c be 59 f3 54 3d 5c f5 11 3e
       0.20339815 -0.30644184 0.051989887 0.14253753
000380 ec 40 00 3c 9c 95 4f bd 30 c2 e4 bc 45 be f0 bd
       0.007827979 -0.050679788 -0.027924627 -0.11755041
000390 4f f1 17 3e 35 b4 90 3d fc 1e f3 3d 5b 26 66 3e
       0.14838146 0.07065622 0.11871144 0.22475569
0003a0 ff 15 28 3e ee c6 0d bd 03 79 40 3e c7 d5 3f be
       0.16414641 -0.034613542 0.18796162 -0.18733893
0003b0 cc a2 be 3d fa 5d 55 be fb a8 ab bd 5e 57 f3 3d
       0.09308395 -0.2083663 -0.0838184 0.11881898
0003c0 2e e0 02 be 46 16 70 be 7b 79 61 3e 69 63 d3 bd
       -0.1278083 -0.23445997 0.22018997 -0.10321695
0003d0 8f 53 9d bc f9 86 ad bd ae f5 32 be 6b fc ec 3d
       -0.019204883 -0.084730096 -0.17476532 0.115715824
0003e0 21 8e ba 3d d3 6b af 3d e3 79 0c 3e 90 b3 85 3d
       0.0910914 0.08565488 0.13718371 0.065283895
0003f0 9a d0 00 bd ec 87 0f be 86 61 39 3e 44 00 9d 3d
       -0.031448938 -0.14016694 0.18103608 0.07666066

encoder_gru.weight_hh_l0 f4 [54, 18]
000000 42 c3 15 3d c5 ea 60 be e9 9d b4 3d bb 58 5c be
       0.036563165 -0.21964557 0.088191815 -0.21518223
000010 8a aa 3b 3e 17 ed bd 3d 9a 93 71 be 57 00 06 3d
       0.18326774 0.09273737 -0.23591462 0.032715168
000020 ab 33 a7 bd ce 22 b9 bd 28 0f f3 3d 81 54 58 bd
       -0.08164152 -0.090398416 0.11868125 -0.052814964
000030 12 4d 6a 3c e8 ba 17 bd 07 06 33 3e 47 e6 74 3e
       0.014300602 -0.037043482 0.17482768 0.23915969
000040 f6 72 64 3e 69 03 ed bd 32 4d 72 be 9d 5f 3b 3e
       0.22309479 -0.11572916 -0.2366226 0.18298192
000050 6d bd 94 bc 11 83 1c 3e 2c a9 49 be 27 59 d3 3b
       -0.018156732 0.15284373 -0.1969344 0.006449837
000060 c6 1b 97 3c f9 88 2f 3e 32 c3 70 be 72 fd 14 3e
       0.01844586 0.17142095 -0.23511961 0.14549807
000070 3b 6d a0 3d 9c 12 86 be 63 0b 39 3e b5 8d 93 3b
       0.07833334 -0.26186073 0.1807075 0.004502977
000080 1a 0e b2 3d 8a 07 e1 bd ad e8 0f be af 9f 75 3e
       0.08694096 -0.10987766 -0.14053603 0.23986696
000090 b4 27 31 3e a8 3e 3f 3e cf 17 62 bd 6f a4 31 3e
       0.17300302 0.18676245 -0.055198487 0.17347883
0000a0 a2 11 e0 3c 3b d4 50 be 9f 11 3a 3c aa e4 09 be
       0.027352158 -0.2039346 0.01135674 -0.13466135
0000b0 00 fd f6 3c 66 36 0a be 79 68 83 3d b2 74 02 3e
       0.030149937 -0.13497314 0.06416411 0.12739828
0000c0 44 7f b0 bd 9e cc 2e be c4 d5 81 3d 3b 4e b8 bd
       -0.08618024 -0.17070243 0.06339601 -0.08999296
0000d0 1e 24 a1 bc 96 3a bc 3c a7 a7 47 be d0 f8 03 3e
       -0.019670542 0.022977155 -0.19497548 0.12887883
0000e0 48 0c b9 bd cb 13 6b 3d 55 6a 70 bc 29 ef 02 be
       -0.090355456 0.057391923 -0.014673789 -0.12786545
0000f0 00 01 bd bd 08 17 8b 3c 05 6e 47 3e d5 f6 7b bc
       -0.09228706 0.016978756 0.19475563 -0.015378674
000100 26 77 1f bb ad 67 23 3c 7f e5 55 3e 08 b6 4d 3e
       -0.0024332493 0.009973449 0.20888327 0.2008897
000110 56 49 4e 3e dd 0a 6f 3e 49 06 ef bd 71 d9 ce 3c
       0.20145163 0.23343988 -0.11671121 0.025250169
000120 ad 1d c1 3c cc f3 c7 bc 6f ef 73 be ff 75 2c be
       0.02357372 -0.024408244 -0.23821805 -0.16841887
000130 1a 41 69 3e 78 92 69 be 6f 50 43 3e 68 0e 2d be
       0.2277874 -0.2280978 0.19073652 -0.16900027
000140 c4 ea ba bc 60 82 dc 3d 8c 6b b8 bb 2e af 29 bd
       -0.022817023 0.107670546 -0.005628055 -0.04142683
000150 6e 53 71 3e 23 ee a8 bd bd f1 d4 bd 39 37 08 be
       0.23566982 -0.08248546 -0.103976704 -0.13302316
000160 ba 02 11 be 30 2d 20 bd 71 b0 85 3e 64 50 3b 3e
       -0.14161196 -0.039105594 0.26111177 0.18292385
000170 dd c5 8d be c3 d6 a4 bc 44 73 12 3e 91 03 24 be
       -0.2769002 -0.020121938 0.14301783 -0.16016985
000180 da c6 dc bc 82 fb b5 3c 08 b4 da 3d bf e0 04 3d
       -0.026950289 0.022214655 0.106788695 0.032440897
000190 c5 7c 72 3e 13 1c 1f 3d af d2 94 ba f3 e3 19 be
       0.23680408 0.038845133 -0.0011354293 -0.15028362
0001a0 ec f3 c3 bc 41 75 a3 bd b7 3d 63 be 1a ae 99 3d
       -0.023920022 -0.07981349 -0.22191511 0.0750391
0001b0 bf b0 43 bd d4 d4 05 3d a3 fc 0f 3e da c3 8f be
       -0.04777598 0.03267367 0.14061217 -0.2807911
0001c0 70 56 18 be bd 37 27 3e 82 22 d2 bd f7 d8 06 3e
       -0.14876723 0.16329856 -0.10260488 0.13168703
0001d0 f1 38 42 be 0d 37 02 3e 52 9d 78 be 3c 74 7b 3d
       -0.18967034 0.12716313 -0.24278763 0.061390147
0001e0 d9 bc 26 be d1 8f 2e be 82 ea 91 3e 45 de bd bd
       -0.16282977 -0.17047049 0.28499228 -0.0927091
0001f0 e6 23 cf bd 8e 63 89 be 93 87 c7 bb 85 5e b3 3d
       -0.10114269 -0.26833767 -0.0060891598 0.087582625
000200 a3 e0 83 3d 2a fa 0a 3e c8 b0 6b bd b2 cc 7c bd
       0.064393304 0.13571993 -0.05754164 -0.06171865
000210 8a 33 4b be 19 d9 f5 bd 25 3d 2e bb 7e 93 a5 3d
       -0.1984388 -0.12004299 -0.0026586738 0.080847725
000220 c9 8a d3 3d 73 08 b4 3d 19 85 b3 3c d4 67 06 3d
       0.103292055 0.08790674 0.021914052 0.032813862
000230 ec 6e 05 3c 5b 76 e2 bd 98 83 84 be 36 3c ac 3d
       0.008144122 -0.11057731 -0.25881648 0.08409922
000240 8e 58 d0 bc dc e6 92 bd 39 ef eb bd 53 79 61 3e
       -0.025432851 -0.07172939 -0.115202375 0.22018938
000250 33 49 66 be b0 17 3b bd 7d 00 5f 38 3a a8 1c 3e
       -0.22488861 -0.045676887 5.3167798e-05 0.15298548
000260 5d 95 06 be d9 e4 2b 3e 95 29 2f 3e 71 23 62 3d
       -0.13142915 0.16786517 0.17105706 0.05520958
000270 0f ad fd bd 14 d9 73 bd 4d ad ad 3d 8d 25 e8 3d
       -0.12386524 -0.059533194 0.0848032 0.11335287
000280 db dd a7 bd 63 72 7b 3d db 24 cb 3d 52 24 67 be
       -0.081966124 0.061388385 0.09919139 -0.22572449
000290 aa 68 80 bd 77 07 6e bd 09 04 37 bd 0d 50 59 be
       -0.06269963 -0.058112588 -0.044681583 -0.21221943
0002a0 d3 58 73 bc 53 c6 8d 3b 61 92 45 3e fc 97 7f bc
       -0.01485272 0.0043266206 0.1929412 -0.015600201
0002b0 42 c1 22 be 59 af b1 3d d1 58 06 bd 98 6b 83 bc
       -0.15894035 0.08676023 -0.032799546 -0.016042516
0002c0 66 93 0c 3e e1 37 07 be 9a 85 b5 bc 39 8d 60 be
       0.13728103 -0.1320491 -0.022158433 -0.21928872
0002d0 a9 dc 4b 3e 4f 27 57 be 77 45 f5 3d 08 35 9d bd
       0.19908394 -0.21011089 0.1197614 -0.076761305
0002e0 68 d1 16 be 11 86 4f 3e de 65 3f 3e 46 07 c5 bd
       -0.1472832 0.20265986 0.18691203 -0.09620528
0002f0 5c d2 89 3d 93 9d 59 be 62 b3 56 be a6 b4 29 bc
       0.06729576 -0.21251516 -0.20966867 -0.010358011
000300 3a a0 6e bd eb 23 24 bd 5e 50 b6 3d 50 4d 04 bd
       -0.058258273 -0.040073317 0.089020476 -0.032300293
000310 f9 44 e5 3d e3 f6 6d be 50 4b 29 be 6d db 6f bd
       0.11194796 -0.23238711 -0.16532636 -0.05855887
000320 56 ba 39 be e9 cf 36 3e b2 d1 44 3e dd dc 87 3b
       -0.18137488 0.17852749 0.19220617 0.004146202
000330 33 23 23 be 60 28 22 3e 3e 0a 35 bd b0 83 ae 3d
       -0.15931396 0.15835714 -0.04419922 0.08521211
000340 e3 35 78 be 87 98 1d 3e a6 95 66 be 0e cd 99 3e
       -0.24239306 0.15390216 -0.22518024 0.30039257
000350 54 79 a8 bd 70 07 32 be ab b3 d2 bd 5f 21 f3 3d
       -0.082262665 -0.1738565 -0.10288175 0.118715994
000360 ce c9 b0 3c d0 9d 5f bd 98 08 f7 bd 56 a3 0f 3e
       0.021580603 -0.05459386 -0.12062186 0.14027151
000370 cb 86 45 3e 96 89 25 be f0 6e 89 3e 99 98 b0 3c
       0.192897 -0.16165766 0.2684245 0.02155714
000380 c0 b2 f9 3a 5f 65 94 bd 9c d7 a8 3d a8 0f 09 be
       0.0019050464 -0.072458975 0.08244249 -0.13384879
000390 51 9a ba bb 65 79 e7 3d 9e 9e 29 3e 13 d5 ba bd
       -0.0056946655 0.11302451 0.16564414 -0.09122672
0003a0 75 b3 28 3e bf d1 25 bd 86 12 e8 3d 02 3c a9 3d
       0.16474707 -0.040483233 0.11331658 0.08263399
0003b0 e8 93 34 be ed 68 1f 3e 03 08 e8 bd 5d ad b9 bd
       -0.17634547 0.1556737 -0.11329653 -0.090662695
0003c0 09 61 62 3d d4 17 49 bd 53 bd 14 be 0b 0d 21 3e
       0.05526832 -0.04909499 -0.14525346 0.15727632
0003d0 aa b4 c5 3d 97 35 e7 3d 98 2f 83 3e 61 d6 27 3e
       0.096535996 0.11289518 0.2562225 0.16390373
0003e0 f9 56 23 be 3e 21 49 3d 9b cc 10 3e 97 a7 be bd
       -0.15951146 0.049103968 0.14140551 -0.09309309
0003f0 40 7f 5c be de e8 68 3e 73 d6 fe 3a 5c 21 a7 3d
       -0.21532917 0.22745082 0.0019442573 0.0816066

encoder_gru.bias_ih_l0 f4 [54]
000000 8d 7b 5b 3e 61 af 76 be 47 d2 cf bd 06 ce 50 3e
       0.2143385 -0.24090339 -0.10147529 0.20391092
000010 23 70 16 be f5 88 40 be bf e7 4d be ed 05 37 3e
       -0.14691214 -0.18802245 -0.20107935 0.17873354
000020 e6 7f ec 3d 0e 8a 3e 3c 88 1d 21 be 84 52 97 bd
       0.11547832 0.0116295945 -0.15733922 -0.073887855
000030 0a 03 62 be 3e 4d 5e be 2f 9a 06 be 87 42 5d be
       -0.22071472 -0.21709153 -0.13144754 -0.2160741
000040 ca 98 4a be d7 30 71 bc 3f 03 9d bd a4 4b 85 be
       -0.19784847 -0.014721117 -0.07666635 -0.26034272
000050 3b dd 0f be 54 8e 09 3d 29 86 7b be 59 1f 81 be
       -0.14049236 0.033583 -0.24562897 -0.2521923
000060 fd 02 87 be e5 24 cf 3d c2 8f 71 3d 2b 47 35 3e
       -0.26369467 0.10114459 0.05897499 0.1770293
000070 3e 32 94 3d 2a d9 19 3e 62 4d 0d 3e a8 81 e7 bb
       0.072361454 0.15024248 0.1379905 -0.007065017
000080 4f ba 74 be 29 6b 4a be 30 49 2f 3e ec 36 0a 3e
       -0.23899196 -0.19767441 0.17117763 0.13497514
000090 17 e9 e5 bd e4 0e 46 3d 9c 67 e5 bd a4 7f 8c bd
       -0.11226099 0.048354045 -0.112014025 -0.06860283
0000a0 8c 85 a2 bc e6 ac 2c be 85 dc 0b be 5d 98 fc bd
       -0.01983907 -0.1686283 -0.1365834 -0.123337485
0000b0 50 cc 45 be 25 9d 3d 3e a1 f2 dc 3c a4 2a 41 bd
       -0.1931622 0.18516977 0.026971163 -0.047159806
0000c0 7a 78 c0 bc ca 4b 17 bc 5e 0b bf bd 8e 08 8e 3d
       -0.023494948 -0.009234378 -0.0932834 0.069352254
0000d0 7c ef 11 be b4 df 5d bd
       -0.14251512 -0.054168418

encoder_gru.bias_hh_l0 f4 [54]
000000 1b 28 a4 bd 6a 34 90 3d b5 58 ff 3d bc c8 f2 bb
       -0.08015462 0.07041247 0.124680914 -0.0074091833
000010 65 8f 58 bd e4 f0 50 be 7e f7 1c bb 0f 78 2a be
       -0.052871127 -0.20404392 -0.0023951228 -0.16647361
000020 20 02 63 be b4 b9 27 be c8 6a 70 3c 2a e2 80 3e
       -0.2216878 -0.16379434 0.014673896 0.2517255
000030 6b 05 25 3e 2e 50 86 3d 1f ba 40 bd 8d ee 7b 3d
       0.16115348 0.06558262 -0.0470525 0.061506797
000040 1f 57 0c 3e 8c 7b 55 be 28 50 97 bd 93 d4 5f be
       0.13705109 -0.2084791 -0.073883355 -0.21858434
000050 00 7d 17 bd d2 82 9a bd 80 b0 36 3d 5f fc 1c be
       -0.036984444 -0.07544483 0.044601917 -0.15330647
000060 d7 d5 90 bd c9 ce 81 3d d8 32 bd 3d 70 5f 81 bd
       -0.07072037 0.06338269 0.09238213 -0.063170314
000070 08 03 3f be 97 c1 1c 3e 80 e6 17 be 12 4a 94 bd
       -0.186535 0.15308224 -0.14834023 -0.0724069
000080 fc a5 62 be 5e 2e db 3c a2 fa 52 3e c0 07 18 3e
       -0.2213363 0.026755508 0.20603421 0.14846706
000090 69 68 0b 3e eb 55 29 bc e3 f2 7b 3e a1 39 66 3d
       0.13614048 -0.010335426 0.24604373 0.056207303
0000a0 63 4b 41 3e 5b e8 6e 3d 47 41 d3 bd a4 36 a7 bd
       0.18876414 0.05832706 -0.10315185 -0.08164719
0000b0 91 0a 67 be 2c d9 10 3e c8 d9 1b bd 6d 85 d9 bd
       -0.22562625 0.14145344 -0.03804949 -0.10621152
0000c0 08 c9 11 bd 3d b4 fa 3d e1 92 bb bc 4d b0 20 3e
       -0.03559211 0.12241409 -0.022897186 0.15692253
0000d0 68 64 62 be db d8 34 be
       -0.22108614 -0.17660849

encoder_gru.weight_ih_l0_reverse f4 [54, 20]
000000 43 f6 f8 bd c2 47 52 3d 3e e5 72 3e 00 b5 9b 3c
       -0.12156346 0.051337965 0.23720261 0.019007206
000010 f8 e0 1f be e0 f1 30 3e 1d 6a 60 3e 3c 72 41 bd
       -0.15613163 0.17279768 0.21915479 -0.047228083
000020 d3 12 f8 bd 68 6d 6e bd 0e fb 0a 3d 7c 45 a4 3d
       -0.121129654 -0.058209807 0.03393083 0.080210656
000030 81 8d 1e be 62 4f 47 3e c8 be 01 be 05 8f 69 3e
       -0.15483667 0.19463876 -0.12670434 0.22808464
000040 00 92 2a 3e fa af 5c 3e 65 0a 43 3e 55 5e 96 bd
       0.16657257 0.21551505 0.19046934 -0.07342211
000050 69 c6 6a 3e e9 bd 18 3d 50 6e 82 bc 13 d7 01 3e
       0.2292725 0.037290487 -0.015921742 0.126797
000060 0f b2 cb 3d 44 a2 81 3d 18 eb 97 bd 69 b6 13 3d
       0.09946071 0.06329778 -0.074178874 0.03606263
000070 20 78 60 bd 43 97 9e bd b5 a4 bd bd 9e b9 dc bd
       -0.05480206 -0.07743695 -0.09259931 -0.10777591
000080 0e fb 1f 3e fc 9e f5 bd 7f 63 94 3e 79 87 74 be
       0.15623114 -0.119932145 0.2898216 -0.23879804
000090 da 04 0b 3e f1 f1 5b be 3d dd 07 3e 5b 7e a3 3d
       0.1357607 -0.21479012 0.1326799 0.07983085
0000a0 09 8a 19 3d f8 59 dd 3d f8 ef 3d 3e e8 2a eb bc
       0.037485156 0.10808176 0.18548572 -0.028706983
0000b0 a7 c5 10 3e 66 1c 2a 3e 68 67 27 be 56 15 4c be
       0.14137898 0.16612396 -0.1634804 -0.19930014
0000c0 fa ca 5f 3e 9d ed 3e 3d f0 1f 52 3e 1f 6c 1e 3e
       0.21854773 0.046613324 0.20519996 0.15470932
0000d0 a2 d6 a3 bc 66 30 ef bd d4 6e 09 3e 4b e7 10 3e
       -0.019999806 -0.11679153 0.13421184 0.14150731
0000e0 56 69 3d be 89 dc 70 be ab 5d 51 be 36 ec 41 3e
       -0.18497214 -0.23521627 -0.20445888 0.18937764
0000f0 af 15 07 3e b8 ab 0c 3e 97 ee 7d 3d 25 2c 33 3e
       0.13191865 0.1373738 0.061995115 0.17497309
000100 9f 70 cc 3c 37 16 f5 3d 45 ff 90 3d 45 a1 5d bd
       0.024956046 0.11967128 0.07079939 -0.054108877
000110 71 a3 24 3e d0 3e 80 be 10 9a 5c bd c3 01 76 be
       0.16077973 -0.25047922 -0.053857863 -0.2402411
000120 88 04 25 bd b2 68 2c bd d3 5a 4b be ac 78 6f be
       -0.040287524 -0.042092033 -0.19858865 -0.23385876
000130 4d 3a 98 bb b5 e8 90 3b bd 07 c5 bd 59 68 66 be
       -0.004645622 0.004422272 -0.096206166 -0.22500743
000140 8b 0e 49 3e 8b 0a 34 3e fe c7 30 be 37 91 34 3c
       0.19634454 0.17582147 -0.17263791 0.01102095
000150 d2 c3 2f bd c2 05 96 3d 60 60 0f 3e 65 d6 99 bd
       -0.04291136 0.07325317 0.14001608 -0.07511596
000160 ec ef 01 bd 1a 2a 27 be aa a8 2b be 48 6e 9e 3d
       -0.031722948 -0.16324654 -0.16763559 0.07735878
000170 85 53 79 3e 69 65 6b 3d d1 04 a4 3d 2d c6 50 bd
       0.24348266 0.05746976 0.08008731 -0.050970245
000180 79 6f 70 be a4 7a 11 be 8d bb 49 be fc 4d 6a 3d
       -0.23480023 -0.1420694 -0.19700451 0.057203278
000190 e4 7a 21 3e 9f 10 8b 3e e2 13 46 3e 40 6a c7 bd
       0.15769535 0.27161118 0.19343522 -0.097370625
0001a0 a6 c0 b7 bd 65 83 ad bd 9b 74 33 3e fa 6d 0a be
       -0.08972292 -0.08472327 0.1752495 -0.13518515
0001b0 a1 ea 32 3d f8 28 81 be 0e 02 3c be f5 b9 5c be
       0.04368079 -0.2522657 -0.18360159 -0.21555312
0001c0 88 2b 88 bd 48 0f 52 bd e0 03 61 be 7a a1 66 3d
       -0.06648928 -0.051284105 -0.21974134 0.05630634
0001d0 4f f0 db bd 91 5c 13 be f5 09 65 3e 16 90 40 3e
       -0.107391946 -0.1439078 0.2236708 0.18804964
0001e0 ab f3 f6 3d 9d 45 ce 3d a6 f5 fe bd b0 d8 2d be
       0.12058195 0.100718714 -0.124491975 -0.16977191
0001f0 4f e9 50 bd 5f b1 8c be ad 6a ed 3d 84 a3 0f be
       -0.05100375 -0.27479073 0.115926124 -0.1402722
000200 7c 55 23 be c1 55 ab bd 8e a9 20 3e c1 a6 2a be
       -0.15950578 -0.08365966 0.1568968 -0.16665174
000210 8a da cf bc e8 de 2b be 3b 7a e9 bd 24 3f 97 be
       -0.025372762 -0.1678425 -0.11400267 -0.2954036
000220 fe 49 99 3c a8 40 ca bd f9 4a 29 3c 8f ca cc bd
       0.01871204 -0.098756135 0.010332816 -0.099995725
000230 41 0c 1a bd 74 db 7b be db b8 52 be 0c 0f 45 be
       -0.037609342 -0.24595433 -0.2057833 -0.19244021
000240 35 17 61 3b fd 37 a9 bc c8 73 83 3d fa 8c 37 3e
       0.0034346108 -0.02065658 0.06418568 0.17924872
000250 b5 f8 4d 3d ba 0f 0f be 0c 04 8a 3d 39 c7 37 3e
       0.050286014 -0.13970843 0.06739053 0.17947091
000260 f8 63 5b be c0 4e 8f bc 42 d2 29 3e 42 50 09 3e
       -0.21424854 -0.017493606 0.16584113 0.13409522
000270 16 61 04 3e 9d f9 27 bd d9 f3 3b 3e 9d 0c b8 bd
       0.1292766 -0.041009534 0.18354739 -0.08986781
000280 ad d3 85 3d 46 a0 86 3e 37 f2 01 bd a6 6b 6d 3e
       0.065345146 0.26294154 -0.031725135 0.23185596
000290 83 02 24 3e 92 32 62 be 7e 5a ec 3d d3 d3 28 3e
       0.16016583 -0.22089604 0.115406975 0.16487055
0002a0 47 c2 c4 3c d6 58 86 3e 53 bf bd bd 6c d5 b5 3d
       0.02401842 0.2623965 -0.09265008 0.088785976
0002b0 c3 0f 06 3c 3b 10 2f be d2 84 cf bd 56 7e 71 3d
       0.008182469 -0.17096035 -0.10132755 0.058958374
0002c0 10 59 3a 3c b7 c9 52 be f3 f9 69 be 61 98 1b 3e
       0.011373773 -0.2058476 -0.22849254 0.15194847
0002d0 d2 22 a8 bd 28 73 f8 bd 73 a8 40 3e ad 2a 4b be
       -0.082097664 -0.12131339 0.18814258 -0.19840498
0002e0 7a cc 19 bd f1 b3 ec 3d 17 9f 0e 3e 42 4b 9b bc
       -0.03754852 0.115577586 0.13927875 -0.018956784
0002f0 bb 30 61 be 86 3c da 3d 13 3e f9 bc d0 d3 02 be
       -0.21991245 0.10656075 -0.030425107 -0.12776113
000300 2e 22 09 be 30 4d 9b 3c b3 3d c3 bd 29 da 10 3e
       -0.13391945 0.018957704 -0.095332526 0.14145721
000310 21 a1 66 3e ab 86 b5 3d 46 53 7d be 61 fe 99 bd
       0.22522403 0.088635765 -0.24738798 -0.07519222
000320 9c 34 f6 bd ad 9f 83 be b1 0e c9 bd 52 df 67 3e
       -0.12021753 -0.2570776 -0.09817255 0.22643784
000330 4c 26 26 3e b5 4b a8 bb fe a2 5c bb 36 2a 91 bd
       0.16225547 -0.005135978 -0.0033666487 -0.07088129
000340 0f 01 ef 3d d9 25 4c 3d dd 1c bf 3d a8 92 d7 3d
       0.11670124 0.04984078 0.09331677 0.10526019
000350 f7 fc af 3d 95 5e de bd e3 91 d0 3d 1f bf 68 3e
       0.08593171 -0.10857884 0.10184076 0.22729157
000360 15 e8 4a 3e 4a 64 9b bc ac 7e e4 3b a9 fe 26 3e
       0.19815095 -0.01896872 0.0069731083 0.16308083
000370 66 63 f3 bd 1c 93 d0 3b ed d0 41 3e b9 5f fa 3d
       -0.11884193 0.006365193 0.18927355 0.12225289
000380 f7 05 0a be 8a 8c ea bd 35 72 04 3e c5 ce 69 3d
       -0.13478838 -0.11452587 0.12934192 0.057081956
000390 f4 8f 06 3e 21 91 95 3e d5 c3 9a 3d 59 f0 d4 3b
       0.13140851 0.29212287 0.07556883 0.0064983782
0003a0 bb 54 50 3e c3 e9 91 3e e7 e3 40 3e ad 1e 78 3e
       0.20344822 0.2849866 0.18836938 0.24230452
0003b0 fe 06 af bd f9 92 ee 3c 40 bc 9c 3d 67 00 22 3e
       -0.085462555 0.029122816 0.07653093 0.15820466
0003c0 cd f9 34 3c f9 19 8d be 18 fd a5 3d 40 da 26 bd
       0.011045885 -0.27558878 0.081049144 -0.040735483
0003d0 69 5f ff 3c 83 7a 5e 3e 13 92 9c 3e f1 17 36 bc
       0.031173425 0.21726422 0.30580196 -0.0111141065
0003e0 05 d4 70 3c 0b 91 98 3d fd 12 36 3d c2 47 e9 bc
       0.014698987 0.0744954 0.044451702 -0.0284766
0003f0 4b d5 e3 3d 27 ae 9f 3d a8 6a 3d bd 28 45 c2 3c
       0.11124667 0.07796889 -0.046244293 0.023714617

encoder_gru.weight_hh_l0_reverse f4 [54, 18]
000000 92 f0 b2 3d 96 c2 61 be 79 20 a9 38 4d 00 df 3d
       0.087372914 -0.22046885 8.0645965e-05 0.10888729
000010 29 35 8a be 1b 17 37 be 4e 6d 2a be 77 52 0e be
       -0.26993683 -0.17879908 -0.16643259 -0.13898645
000020 71 b6 35 be 48 b0 0b be 68 2f 25 be 9f 76 d1 bd
       -0.17745377 -0.13641465 -0.16131365 -0.10227703
000030 14 86 0a bb 2a 8e e6 bd 86 a1 2a 3e 6f ab b6 3b
       -0.0021137046 -0.112575844 0.16663179 0.0055746357
000040 6b 14 91 3e 19 17 49 3d 8a bc a6 bc 02 91 21 3e
       0.2833589 0.049094293 -0.020353574 0.15777972
000050 ee 61 70 bc 64 e5 33 be 41 9d b6 3d ee a6 0e 3e
       -0.014671786 -0.17567974 0.089167126 0.13930866
000060 bc 36 29 3d d6 76 2c be 22 7b 94 3d 70 a0 30 3e
       0.041311964 -0.16842207 0.07250048 0.17248702
000070 59 08 03 3e d8 d8 2c 3e 00 e5 34 3e 19 ea 6f 3e
       0.12796153 0.16879594 0.17665482 0.23429145
000080 b5 38 27 3d bb 3e 83 3e e0 49 24 be 8c b1 71 3e
       0.040825564 0.25633797 -0.16043806 0.23602885
000090 d2 3f a4 3c 1c d3 11 be 03 84 33 bd 28 98 37 3e
       0.020049963 -0.14240688 -0.043827068 0.17929137
0000a0 03 70 05 bd 9f 1a de bc d6 e2 05 3e 07 bc 28 3d
       -0.032577526 -0.027112303 0.13074812 0.04119494
0000b0 77 44 30 3c d3 c5 e7 3d cf 72 6c 3e 97 e2 44 be
       0.010758511 0.11317029 0.23090671 -0.19227062
0000c0 f9 d7 0e 3e 1e cf 4a 3e 69 e3 c0 3d 17 ec 0c 3d
       0.13949575 0.19805571 0.09418375 0.03440484
0000d0 b3 3a 68 3b db 44 12 3e 2c 0e dc bd b7 bd 08 3e
       0.0035435378 0.14284079 -0.107448906 0.1335362
0000e0 a2 b2 c2 3b 67 1a 8b bd 6b 03 d1 bb df 08 97 3d
       0.005941705 -0.06792145 -0.0063785813 0.07374739
0000f0 aa 0a 04 be 76 d9 6e 3d 5a 86 b9 bd 20 18 0c 3d
       -0.12894693 0.058312856 -0.09058829 0.034202695
000100 3b bb 09 be 87 fb 45 bd 77 d0 b0 bb 57 74 42 3e
       -0.13450329 -0.04833558 -0.0053959447 0.18989693
000110 53 8d 11 be 0c 3c 19 be 32 27 af bc 70 4d 26 be
       -0.14214067 -0.14964312 -0.021380994 -0.16240478
000120 b6 38 d0 bd 04 09 be 3d 18 01 34 be 9a c9 4b be
       -0.10167067 0.09279063 -0.17578542 -0.19901124
000130 33 f4 16 3d 1a 46 59 3e 4f e2 3c be e3 49 57 be
       0.03685398 0.21218148 -0.18445705 -0.2102428
000140 38 1c 94 3d 70 ad 69 3d d6 bc 3b 3e 74 e6 78 bb
       0.07231945 0.05705017 0.18333754 -0.0037979158
000150 68 c3 6c be c3 29 89 3e a5 3e bf bd 91 63 f1 bc
       -0.23121417 0.26789674 -0.0933812 -0.029466422
000160 0d 38 c4 bd be 94 f8 bc 47 42 e5 bd 9e 88 c4 3b
       -0.09581003 -0.030344363 -0.11194282 0.0059977314
000170 14 25 5b bb ec 36 f6 3d 69 63 43 be 83 81 33 bd
       -0.0033438848 0.12022194 -0.1908089 -0.043824684
000180 23 d7 ba 3d e5 1f 96 3e 22 53 9b 3d b4 5d b6 3d
       0.09123065 0.2932121 0.07584216 0.08904591
000190 61 71 2b be 0e a0 8c bd 78 7e 6b bc 57 b2 d8 bd
       -0.1674247 -0.068664655 -0.014373414 -0.105808906
0001a0 9e bc 8d 3c a2 1b 19 be 84 23 88 3e 1c 8c 67 bb
       0.017301854 -0.14951947 0.26589596 -0.0035331314
0001b0 c1 c3 11 3e d6 b6 6f be 81 32 28 be 82 77 65 bd
       0.1423483 -0.2340959 -0.16425516 -0.056022175
0001c0 23 72 09 3e 69 91 ca bd 4c 4c 7a bd 7c 24 d1 3c
       0.13422446 -0.09891016 -0.06110792 0.025530092
0001d0 05 cb 3a 3d 45 79 5f be ed 64 44 bd 2e 7b 8a be
       0.04560377 -0.21823604 -0.047947813 -0.27047104
0001e0 58 92 2c be 80 98 ee bd f3 32 89 3d 1f 0d 79 3e
       -0.168527 -0.11650181 0.06699171 0.24321412
0001f0 5e 34 71 be 79 45 12 be 12 07 3e be 1c e1 23 3e
       -0.23555133 -0.14284314 -0.18557385 0.16003841
000200 d7 62 c3 3d c4 ec ac bd 3d 55 ba 3d 76 9f 3a be
       0.095403366 -0.08443597 0.09098289 -0.18224892
000210 56 1e 0a 3c b5 2a 39 be c3 e6 02 3e cb 50 8a be
       0.008430084 -0.18082698 0.12783341 -0.27014765
000220 43 4d 39 be f1 55 8f bd a8 d4 28 3d 60 94 67 3e
       -0.1809588 -0.06998814 0.04121843 0.22615194
000230 f5 c7 3e 3e bc 0c 32 be 1c a3 06 3e 07 6d ab bd
       0.18630965 -0.1738767 0.13148159 -0.08370405
000240 b7 44 63 3c 87 ea 16 3e 5d 5c 40 be 15 d8 0b be
       0.013871363 0.14737903 -0.18785234 -0.13656648
000250 75 a1 b1 3d bd 35 0d 3d dd 24 cf 3c b8 a3 38 3e
       0.086733736 0.034475077 0.025286132 0.18031204
000260 d6 10 db 3d 82 44 58 3e 5f 6c 31 3e 9e 69 1d be
       0.106965706 0.21119884 0.17326497 -0.15372321
000270 b9 13 49 3e e6 98 60 be 31 54 be bd 8c 12 30 3e
       0.1963643 -0.21933326 -0.09293402 0.17194575
000280 26 08 21 be fd 9f 8f 3d d2 d0 86 be 92 cf 4e be
       -0.15725765 0.07012937 -0.26331192 -0.2019637
000290 ea 1e 0d be a4 ff e4 bd 7f cf 7f be 9e bb 3d be
       -0.13781324 -0.11181572 -0.24981497 -0.18528602
0002a0 ac a2 0d 3e 36 67 4d 3d a2 05 66 be 60 74 44 3e
       0.13831586 0.050147258 -0.22463086 0.19185019
0002b0 e2 cf 0e be 6b 8f 4a 3e d9 7c 95 bd a4 43 ad 3d
       -0.13946488 0.19781272 -0.072992034 0.08460167
0002c0 fa f0 71 3c 45 de 23 3d 3b 9a 82 3e b6 0c ed bd
       0.014766926 0.040006895 0.25508294 -0.1157469
0002d0 52 6f 04 3e 9b 62 c9 ba 79 31 2b 3e b7 db 76 bb
       0.1293309 -0.001536447 0.16718091 -0.0037667581
0002e0 c3 f8 f3 3d 1d c3 28 be 1f f6 d3 3d fe 94 e3 3d
       0.11912682 -0.1648068 0.10349678 0.111124024
0002f0 59 b1 3b 3e a8 5c 35 be a4 b3 40 be 40 d7 15 bd
       0.18329372 -0.17711127 -0.18818527 -0.03658223
000300 46 a0 4d be 21 52 8b 3e 40 3e a6 bc 92 c4 16 3e
       -0.2008067 0.27211097 -0.020293355 0.14723423
000310 5d 22 20 be ca 3f 95 3d 0b 15 f7 3d 13 82 98 bd
       -0.15638109 0.072875574 0.120645605 -0.07446685
000320 b6 10 27 3d 8c 6b 26 3e b8 70 ef 3d 57 c7 50 bd
       0.04078742 0.16251963 0.11691421 -0.050971355
000330 71 22 5f 3d 4c 4d 3c 3e b3 ca 31 be 79 a9 24 bd
       0.054476205 0.18388861 -0.1736248 -0.040200684
000340 11 0e 48 be 5a 9b 29 be 44 a5 00 3e 34 db 37 3e
       -0.19536616 -0.16563168 0.12563044 0.17954713
000350 cb 5b 55 3e fe f5 8c bc 91 23 4f bd f4 f3 0a 3e
       0.20835797 -0.017207142 -0.05057103 0.13569623
000360 63 6b 08 bc fb c4 b0 bd 1e af 4a 3e 21 1c 33 3d
       -0.008326384 -0.08631321 0.19793364 0.043727998
000370 38 18 c2 bd b2 87 01 be e8 1b f6 bd c6 54 9f 3d
       -0.094772756 -0.1264942 -0.120170414 0.07779841
000380 b2 20 74 be de 2f 85 bd c9 90 b2 bd 13 47 41 be
       -0.23840597 -0.065032706 -0.08719022 -0.18874769
000390 73 0f 49 3e b9 51 80 3e 49 c1 11 bd 8e 2d 49 3e
       0.196348 0.2506235 -0.03558472 0.19646284
0003a0 c1 26 f0 bd 56 7c e9 3d fc 25 50 bd 7d 2c 40 be
       -0.11726142 0.11400668 -0.050817475 -0.18766971
0003b0 c2 3b a5 3c 32 15 5f 3e 3d 79 a7 bd b9 01 57 bd
       0.020170096 0.21785429 -0.08177421 -0.052491877
0003c0 7f 0c 48 be 74 10 83 3e 1d 03 c3 3d 62 78 16 3e
       -0.19536017 0.2559849 0.09522078 0.1469436
0003d0 16 4f 8c bd 0b 21 3d be e4 a1 e8 3d 99 53 88 bd
       -0.06851022 -0.18469636 0.11359003 -0.0665657
0003e0 1c f9 e9 3d cf be d2 bd 75 08 66 3e b8 e8 14 be
       0.11424467 -0.102903 0.22464164 -0.145419
0003f0 a4 b4 28 be bd 48 74 be 0b 4e 8a 3d e2 95 36 bd
       -0.16475159 -0.23855872 0.06753167 -0.044576533

encoder_gru.bias_ih_l0_reverse f4 [54]
000000 93 aa 6b bd 9f 97 c4 3d 6c 95 5f bc 2f b1 3a be
       -0.05753572 0.09599232 -0.013646465 -0.18231653
000010 ee 18 1c 3e 02 9b 5e be b0 b9 3c be 1f b1 c0 bd
       0.15243885 -0.21738818 -0.18430209 -0.09408783
000020 1f ba 9e 3d a9 d2 2d be 64 81 2c be a6 7e 5a be
       0.077503435 -0.16974892 -0.16846234 -0.21337375
000030 24 ed d3 3d 79 2c 7e be 05 57 6a 3e 27 27 2c 3e
       0.10347965 -0.24821652 0.22884758 0.1681181
000040 3f ce fe bb 92 e9 e7 bd 20 92 dc 3b 8d a3 85 be
       -0.0077760513 -0.11323847 0.0067312866 -0.26101342
000050 2d 6c 2c 3a 00 d8 75 3e f2 5c 1f be d2 41 b9 3d
       0.0006577399 0.24008179 -0.155628 0.09045757
000060 47 5d a7 bc 58 fe 3f 3e f6 81 6d be c5 fe e6 bd
       -0.02043022 0.18749368 -0.23194107 -0.11279062
000070 2c f7 8e 3d d3 ad ca bd ac 78 32 3e 40 bb 6a 3c
       0.06980738 -0.098964356 0.17428845 0.01432687
000080 a0 7f 35 3e 0e d6 4d be f1 62 77 be 7a 1d 12 3e
       0.17724466 -0.20101187 -0.24158837 0.14269057
000090 cc 33 13 3e 8e 47 08 3e 5a 8c 57 be 8c 95 50 be
       0.14375228 0.13308546 -0.21049634 -0.20369548
0000a0 fc ad 0a be c5 f8 f3 bb b8 fe be 3d 3d 54 48 be
       -0.13542932 -0.007445427 0.093259275 -0.19563384
0000b0 08 fa 8e 3b 48 37 0f be 99 fa 5e 3e 2b 12 38 3d
       0.004363302 -0.13985932 0.21775283 0.0449392
0000c0 b2 bd 76 3c a6 5b 82 3d 0f 5e 30 be a0 07 f3 3d
       0.015059875 0.06365137 -0.1722338 0.11866689
0000d0 bc ed e3 bd 9e 1a c6 bc
       -0.111293286 -0.024182614

encoder_gru.bias_hh_l0_reverse f4 [54]
000000 94 09 f8 3c 1b 99 d5 bd 49 18 2f be 3b 3d ab 3d
       0.030278005 -0.10429593 -0.17099108 0.08361288
000010 ab ea 81 3e fb e7 4b 3d bb c2 66 3e c0 ef c9 bc
       0.2537435 0.04978178 0.22535221 -0.024650455
000020 89 9b ab 3d f0 39 39 be dd 06 51 be f6 0e d3 3d
       0.08379275 -0.18088508 -0.20412774 0.10305588
000030 15 33 a9 bd 11 49 44 3e b8 fe 9d 3d f4 46 10 3e
       -0.08261696 0.19168498 0.07714599 0.14089566
000040 8c e7 44 bd d7 4f 73 be 00 67 c1 3d 0f 11 8f be
       -0.048072383 -0.23760925 0.09443474 -0.27942702
000050 b6 24 5a bd 36 8e 56 3e 7d 5c 48 be 9a e4 4a be
       -0.053257667 0.20952687 -0.19566531 -0.19813767
000060 26 1c 8b be df 7b cb 3d 74 0a 1b 3e 45 a3 04 be
       -0.27169913 0.09935736 0.15140706 -0.12952907
000070 13 d4 1f 3d 04 ab e4 3b c4 29 73 3d 85 d2 1a 3d
       0.03902061 0.0069783945 0.059366003 0.037798423
000080 d8 0d ce 3d a1 7b ac bc 2e 01 8a bd 0a 73 b7 3d
       0.10061234 -0.021055045 -0.06738506 0.08957489
000090 a7 8e 06 be b1 22 91 bd d3 06 26 be d3 37 d5 bd
       -0.13140355 -0.07086695 -0.1621354 -0.10411038
0000a0 cf 46 a1 3b 3f 71 4d 3d f2 c6 64 be 10 a5 4d be
       0.004921771 0.050156828 -0.22341517 -0.20082498
0000b0 fe 42 64 be c0 48 f5 3d 30 a8 9d bd d1 46 44 be
       -0.2229118 0.119767666 -0.07698095 -0.1916764
0000c0 32 3f da 3d 6e 38 2d 3e 9a c4 40 bd ee 01 7f bc
       0.10656585 0.16916057 -0.047062494 -0.015564425
0000d0 88 3e 15 be 71 98 0a 3e
       -0.14574635 0.13534714

encoder_gru.weight_ih_l1 f4 [54, 36]
000000 f0 04 65 3e 13 17 a4 bd 9f 92 19 3e 41 d7 22 bd
       0.22365165 -0.080122136 0.14997338 -0.039756063
000010 c2 4d 29 be 1c 71 76 bd aa b8 0f bc 2e bc 68 be
       -0.16533569 -0.060166463 -0.008772055 -0.22728035
000020 44 27 84 3e be 21 9a 3c d5 c4 45 3e 17 31 07 3e
       0.25811207 0.018814918 0.19313367 0.1320232
000030 4b 6d 13 3e 1e 1f 4b be 50 58 5e 3e 12 c4 f5 3d
       0.1439716 -0.19836089 0.21713376 0.12000288
000040 67 3b b8 3d 0e 28 69 be c7 76 85 3d 6c 32 33 3e
       0.08995705 -0.22769186 0.065167956 0.17499703
000050 8a 37 23 be bd 26 a9 bd fb 5c 9c 3d 4d 61 44 be
       -0.15939155 -0.08259342 0.07634922 -0.19177742
000060 53 eb f2 3d df 61 07 be b2 02 05 bd f8 74 39 3e
       0.11861291 -0.13220929 -0.032473274 0.18111026
000070 5d 4d cd 3d 5e 33 01 3d b3 f0 04 3e 6e ff b4 bd
       0.100245215 0.03154313 0.12982444 -0.08837782
000080 28 f8 31 3e 98 e5 c9 bd 52 1f 32 3e 86 80 1d be
       0.1737982 -0.09858245 0.1739476 -0.15381059
000090 ef 88 5d 3c 6c 9a 14 3e 09 d1 5c 3e c3 fd 7d 3d
       0.013521417 0.14512032 0.21564116 0.062009584
0000a0 7f 09 5a 3d a6 9e 07 be 6c e7 81 bc 43 83 51 3e
       0.053231712 -0.13244113 -0.01585742 0.20460229
0000b0 70 f5 8c 3c 05 17 26 be b5 0f 2f 3d a1 f0 37 be
       0.017206877 -0.16219719 0.04273959 -0.17962886
0000c0 b3 3b 05 be 9e 85 b6 bd e4 38 81 be 5a 7b 8d bd
       -0.13011055 -0.08912204 -0.25238717 -0.06908293
0000d0 eb 32 e8 bd ab e9 1c 3e fa 75 03 3d 0f 89 09 be
       -0.11337837 0.15323512 0.032094933 -0.1343119
0000e0 eb cb 29 3e 48 3f b1 3d 74 39 81 be 7d 5f 78 bd
       0.16581695 0.08654648 -0.25239146 -0.06063794
0000f0 36 b3 25 be 99 c3 4b be 77 f1 8b 3d b0 39 23 be
       -0.16181645 -0.19898833 0.06833165 -0.15939975
000100 13 91 3b 3e 45 98 8e 3d b6 1e 64 be cf 92 94 3d
       0.1831706 0.06962637 -0.2227734 0.07254564
000110 da 3c 39 be 73 5f 82 bd b8 7b 6f 3d d7 fb ef bd
       -0.1808962 -0.06365862 0.058467597 -0.117179565
000120 14 60 92 be 28 99 cd bc 61 36 71 bd 7a 4d 82 bd
       -0.28588927 -0.025097445 -0.05888975 -0.06362434
000130 53 b9 6d 3e da b7 28 3e b9 c8 26 be b7 25 d9 bd
       0.23215227 0.16476384 -0.16287507 -0.10602897
000140 b4 5f c6 3c b6 3b 24 be 41 4b 31 3e 3d 87 fc 3d
       0.024215557 -0.16038403 0.17313863 0.12330482
000150 91 43 18 3e bd eb 8d 3d 5c 72 07 be e5 bd 58 3e
       0.14869525 0.06929729 -0.13227218 0.21166189
000160 44 39 89 3e 79 e6 55 bd 0c da 6d be 92 cf 1d 3e
       0.26801503 -0.05222175 -0.2322771 0.15411213
000170 e2 89 89 3c 1c fd 34 3c c5 04 95 3d 2f b6 29 3e
       0.01678938 0.011046674 0.072763 0.16573404
000180 44 e4 df bd 9c 13 07 be 46 bf d4 3d 6b 4b 36 bd
       -0.1093221 -0.13191074 0.10388045 -0.044505518
000190 52 e3 f9 3d 56 8b 22 3b ea bf 48 be 9d 01 e9 bc
       0.12201561 0.002480229 -0.1960446 -0.028443152
0001a0 93 09 6f be 8e 01 bf 3d 52 30 41 3c 91 d1 4e be
       -0.23343496 0.093264684 0.011791306 -0.2019713
0001b0 fc 58 16 3e 17 51 65 be f6 76 24 be 87 78 54 3e
       0.14682382 -0.22394215 -0.16061005 0.20749103
0001c0 19 6c 23 3e 1f f0 19 be bb b3 f6 3d c5 2a e9 bd
       0.15959205 -0.15033005 0.120459996 -0.11385111
0001d0 57 85 1f 3d 43 a3 f7 bc 57 d1 b2 3d ff 64 22 3c
       0.038945522 -0.030229216 0.08731335 0.009911775
0001e0 1b 7f b2 bd b1 bc 17 3e bb fb f1 3d e7 f1 47 3e
       -0.0871565 0.14818074 0.11815592 0.19525872
0001f0 2b 26 12 3d d9 07 7a 3e c2 42 00 be db 68 46 be
       0.03568093 0.24417056 -0.12525466 -0.19375937
000200 ed 7c 06 3d 3f c7 6d be 4a 86 a6 be e0 f4 44 be
       0.032833982 -0.23220538 -0.3252433 -0.19234037
000210 85 c3 40 3e db fd 57 3e d1 07 bf bd 01 d7 09 be
       0.18824585 0.21092932 -0.09327663 -0.13460924
000220 19 92 81 be 43 d0 1a 3e a1 9b 13 3e 81 9d cf 3d
       -0.25306776 0.15118508 0.14414836 0.10137463
000230 11 b8 82 3e 0a 4b c3 3d 95 2d 97 3e 55 9d 2a be
       0.25531057 0.09535797 0.29526964 -0.1666158
000240 46 6f 23 3e 00 44 72 be 3a e2 c3 3d 2a dc 2f be
       0.15960416 -0.23658752 0.09564634 -0.1717383
000250 86 ce 80 3d fe 9e 1a bd 1d 03 7f bd 5a a3 03 be
       0.06289391 -0.037749283 -0.06225883 -0.12855282
000260 ac 3c ee bd 1e 68 50 3d 64 52 5d 3e 42 81 52 3e
       -0.11632666 0.050880544 0.21613461 0.2055712
000270 ad 3b 19 3e 29 5e 45 3d c6 c6 16 bd 7a d2 38 3e
       0.14964171 0.0481855 -0.03681066 0.1804904
000280 2a e4 d0 bd 9b c4 2d be 51 15 28 3c db 01 0b be
       -0.10199769 -0.1696953 0.0102589885 -0.13574927
000290 61 55 9e 3d df d0 1f 3d bc fe 2f bd 86 40 43 3e
       0.077311285 0.039017554 -0.042967543 0.19067582
0002a0 95 cf 92 be 59 27 06 3e e7 5f 20 bd cc ec 8f bd
       -0.28673998 0.13100947 -0.03915396 -0.07027587
0002b0 67 51 21 be 43 25 8a 3e ac 31 8c 3d 63 85 6f 3c
       -0.15753709 0.26981553 0.06845412 0.014619204
0002c0 6f 2e 60 bd 99 61 bd 3d bd 22 05 be 18 99 9b be
       -0.054731783 0.09247131 -0.13001533 -0.3039024
0002d0 76 aa a7 3d c4 3d a2 39 15 0b 10 3e 15 bb 5b be
       0.0818681 0.00030945067 0.14066727 -0.21458085
0002e0 62 9e ac bd d9 b9 52 be 31 4b 26 be 7b 95 24 3e
       -0.084286466 -0.20578708 -0.16239621 0.16072647
0002f0 f6 e1 e8 3d ba c2 ed bd b8 be 69 3e 2d 04 31 be
       0.11371224 -0.11609407 0.2282666 -0.17286749
000300 e4 38 cb 3d ea 7d b4 3c 15 51 bc 3e 42 33 9f bd
       0.099229604 0.022032697 0.3678061 -0.077734485
000310 b5 e4 1b 3e 64 7d 16 3d c4 87 84 3d 2a f0 bf bd
       0.15223964 0.036740676 0.06471208 -0.093719795
000320 cc cd 32 be 92 fe 50 3e d3 08 a9 3d 37 63 49 3e
       -0.17461318 0.20409611 0.08253636 0.19666754
000330 e4 22 14 3e 8c a9 67 3e 9c ea 79 bd 91 1b 4f 3e
       0.14466435 0.22623271 -0.061014757 0.2022536
000340 e4 24 61 3e 6f 7a 4d be 77 68 21 bd b1 5c 75 bc
       0.21986729 -0.20066236 -0.039406266 -0.014975713
000350 a5 de 51 3e 44 fc 38 3d 27 6d db bd 55 54 09 bd
       0.20495088 0.045162454 -0.107141785 -0.03352769
000360 a0 bb 49 3e 88 b6 5c 3c 4a c9 34 3e 4a 5a d1 3c
       0.1970048 0.013471253 0.1765491 0.025555748
000370 5d 33 94 bd b6 f0 01 3e 2c e4 6a be a3 ad 72 3d
       -0.07236359 0.1268948 -0.22938603 0.059247624
000380 4d c9 45 be ea ee 89 be 5f 9e 4a be 63 50 5f 3e
       -0.19315071 -0.2694009 -0.19786976 0.21808009
000390 cc fc 91 bc 01 1b ab bd a7 11 8f 3d b8 91 c7 3d
       -0.017820738 -0.0835476 0.06985789 0.097445905
0003a0 08 6f 8a bd 3d 07 11 3e 53 95 ae 3d af 47 13 3e
       -0.06759459 0.14162917 0.08524575 0.14382814
0003b0 58 ac fb bd e3 7a 46 be a7 01 9a be 9d c6 49 3d
       -0.12288731 -0.19382815 -0.30079386 0.049261678
0003c0 e5 4a 2e 3e 04 91 94 3d 59 47 03 3e 4f d1 4b be
       0.17020757 0.07254222 0.12820186 -0.19904064
0003d0 3d 68 50 3e 8c 89 67 3e fd ce c5 bd f2 5c 51 be
       0.20352264 0.22611064 -0.096586205 -0.20445612
0003e0 78 95 28 3e 8a b2 35 3d 6b a9 54 3e dc 65 8d bc
       0.16463268 0.04435972 0.20767753 -0.017260484
0003f0 76 b5 59 bd 31 d4 a6 3d 52 48 53 be d6 4e 7c be
       -0.05315157 0.08145941 -0.20633057 -0.24639449

encoder_gru.weight_hh_l1 f4 [54, 18]
000000 55 25 32 3e 12 b0 27 be fd f0 6a bd e2 7e 08 3e
       0.17397054 -0.16375759 -0.05735873 0.13329652
000010 f8 c9 08 be f1 98 f2 3d d3 d6 09 3e 0b 44 d0 bd
       -0.13358295 0.118455775 0.13460855 -0.10169228
000020 90 6c 69 be 1e 84 32 3e 26 54 50 bd 58 35 4f 3e
       -0.2279532 0.17433211 -0.0508615 0.20235193
000030 47 66 1d be cf c6 38 bd 40 90 e9 3d 6b 69 03 3e
       -0.15371047 -0.045111474 0.11404467 0.12833183
000040 ba 25 af bd 16 2b 1b be a3 99 61 3e 48 bd cf bc
       -0.08552118 -0.15153155 0.22031264 -0.025358811
000050 8d bd 64 3e ed 26 0b 3e 4c 47 ac 3b ed 73 13 be
       0.22337933 0.13589068 0.0052575227 -0.14399691
000060 0a ee 53 3d d3 ef 19 be d6 56 88 3d 2f 6e 31 3e
       0.051740684 -0.15032892 0.06657188 0.17327188
000070 dd 06 4f be 6c 27 d9 bd 6e 97 1f bd 04 5f ea bd
       -0.20217462 -0.10603222 -0.038962774 -0.11443904
000080 69 e5 88 3d 20 1c c9 3d c1 38 85 be 6c 64 6b 3d
       0.066843815 0.098198175 -0.26019862 0.057468817
000090 69 0f 44 bd 60 be 77 3d 4b f0 6b 3e e2 08 32 3e
       -0.04786626 0.06048429 0.23040883 0.17386201
0000a0 bb b1 29 be 61 e8 8a 3d 24 0f ba bc f2 6a 4b be
       -0.16571705 0.06782604 -0.022712298 -0.19865015
0000b0 e5 8b 72 3c 45 88 28 bd 3c 35 9c bd 5c 41 c6 bd
       0.014803861 -0.04114558 -0.07627341 -0.09680435
0000c0 e3 1b 1e be 6a d5 a9 bd ef fb 08 3e 2c 45 70 be
       -0.15440325 -0.082926586 0.13377355 -0.23463887
0000d0 33 ac 47 be 47 aa 25 3e 89 b8 47 3d 8e b7 e6 bd
       -0.19499283 0.16178237 0.04875997 -0.11265479
0000e0 e4 a8 88 3e ef c6 96 3d 77 41 b4 bd 59 80 1e 3e
       0.26691353 0.07362162 -0.08801549 0.15478648
0000f0 38 e4 70 be 7c c9 c9 3d 87 6b 0b 3d f2 aa 3f be
       -0.23524559 0.09852883 0.034038093 -0.18717554
000100 c5 a8 26 be dc f3 e6 bb 93 d9 2d 3d 9b f0 3e 3e
       -0.16275318 -0.0070481133 0.042443823 0.18646471
000110 65 24 3c 3d 1f f8 51 be 46 95 08 be 6f 45 f2 3d
       0.045933146 -0.20504807 -0.13338193 0.1182965
000120 c7 ce 78 3d 9a 0c 78 bd cf d1 5c 3e 2f a8 46 bd
       0.060744073 -0.060558893 0.2156441 -0.048500236
000130 f6 9f 14 be ff 83 8b bd 6f 56 51 bd 3a 4d f9 bd
       -0.14514145 -0.06812286 -0.05110782 -0.12172933
000140 75 2b 80 be 35 c1 40 be 2c a9 41 bd 60 71 5c bd
       -0.25033155 -0.18823703 -0.047280475 -0.05381906
000150 bb ae 94 3e a6 8d a0 bc 41 41 0e be 24 54 5b 3d
       0.2903956 -0.019598793 -0.1389208 0.05354704
000160 ac 7e 91 be 55 39 32 bd 6a a6 35 be 13 c5 28 be
       -0.28416955 -0.043511707 -0.17739263 -0.16481428
000170 09 9a c9 3b c5 4b 05 3d 8f d0 d8 3d 84 8a 83 be
       0.0061523956 0.032542963 0.105866544 -0.25691617
000180 a1 87 70 ba d0 0c b6 bd e5 b7 5b be f6 a9 0d bd
       -0.0009175484 -0.088891625 -0.21456869 -0.034585916
000190 be bc fb bd 3c e0 1a 3e dc 91 39 bd ec 54 73 bb
       -0.12291859 0.15124601 -0.045305118 -0.0037129475
0001a0 f3 a5 39 3e f5 eb 63 3d 6b d3 fc bd 27 a1 da 3d
       0.18129711 0.055644948 -0.12345012 0.106752686
0001b0 60 91 2c bd a5 b1 32 be bb 06 b8 bd 18 17 74 be
       -0.042130828 -0.17450579 -0.08985659 -0.23836935
0001c0 18 e5 48 be 45 bb 68 bd 02 fe ef 3d 76 06 8d be
       -0.19618642 -0.05681922 0.1171837 -0.27543992
0001d0 69 3a 2e be d8 e6 5f be d1 e9 d3 bd e5 5a 16 be
       -0.17014469 -0.21865404 -0.10347331 -0.14683111
0001e0 66 32 84 3e 21 16 9f 3d b0 71 1d be d8 ab 84 3d
       0.258197 0.07767893 -0.153754 0.06478089
0001f0 96 36 1b 3e c5 2b 24 3e a3 5d 1f 3d 11 85 38 be
       0.15157542 0.16032322 0.03890766 -0.18019511
000200 dc a1 37 3e d6 23 05 bd d9 15 e2 3d ae 27 31 3e
       0.17932838 -0.03250488 0.11039323 0.17300293
000210 0b fa d8 bc cd 42 e3 bc 82 f4 56 be eb fa 36 3e
       -0.026486417 -0.027741814 -0.2099171 0.17869155
000220 16 26 07 3d 32 95 7b 3d 95 26 0f be 51 58 b7 3d
       0.032995306 0.06142158 -0.13979562 0.08952392
000230 4b 51 0e be 20 8b 06 be 5a de 88 be 8f 10 5a bd
       -0.13898198 -0.1313901 -0.2673214 -0.053238448
000240 03 3a 96 3d 88 63 d1 3d 2e db 09 3e d9 5c 50 3e
       0.073352836 0.10224062 0.13462517 0.20347919
000250 8e dc 66 3e 73 46 62 bd 3e 6c cc 3d 10 42 3d be
       0.22545072 -0.055242967 0.09981583 -0.18482232
000260 48 e3 85 3e 8d 7f 83 3d 1a cb a6 3d 70 11 da bc
       0.26149964 0.06420813 0.08144207 -0.026619643
000270 4b a3 32 3e 47 30 c3 3d 52 64 1e 3e 0f f6 8a 3b
       0.17445104 0.095306925 0.15467957 0.0042407583
000280 05 03 84 3e 0a b2 52 3e 9c 9c 0c 3c a2 8f 0a be
       0.25783554 0.20575729 0.00858226 -0.13531354
000290 42 25 13 bd 31 a0 b6 3d d6 2a b3 bd 38 40 17 3e
       -0.035924204 0.08917273 -0.08748405 0.14770591
0002a0 0a 02 68 3e 25 f7 28 bd c7 58 9c bc 51 13 3c 3e
       0.22657028 -0.04125132 -0.019085301 0.18366744
0002b0 a1 98 00 3e 45 7a 59 bd 52 36 a7 bd a7 f5 bf 3d
       0.12558223 -0.05309512 -0.08164658 0.09373026
0002c0 08 9b 8f 3d b7 f0 b3 bd be 3b 20 3e 3e fb 1b 3e
       0.07011992 -0.08786147 0.1564779 0.1523256
0002d0 77 6d 16 3d c1 85 71 be cf 34 0f be 7f 7a 23 be
       0.036725488 -0.2358618 -0.13984989 -0.15964697
0002e0 fb cf f1 3c 72 cb 18 be 3e a2 2a bd c8 a2 18 be
       0.029518118 -0.14921358 -0.041658632 -0.14905846
0002f0 8d ef 01 3e bb e4 72 be 40 92 10 be 86 b0 d3 bb
       0.12689038 -0.23720066 -0.1411829 -0.006460252
000300 0b b1 d9 3d ab 6e 40 bd c6 51 8d bd 80 5b 40 bd
       0.106294714 -0.04698054 -0.06900363 -0.04696226
000310 c0 be b6 3b 95 8c b7 bc c0 cb 6b 3c 86 73 4d be
       0.0055769384 -0.022405902 0.0143918395 -0.200636
000320 94 cb 6b 3d 39 a0 27 be b3 d9 b2 bd 81 58 0c bd
       0.057567194 -0.16369714 -0.08732929 -0.03426409
000330 04 d3 a4 be 34 3d 06 3e 87 8b d0 bc fa 34 c0 bd
       -0.32192242 0.13109285 -0.025457157 -0.093851045
000340 67 ce 5a be ac 2a 20 bd f4 9c 8f bc cd 3e c3 bd
       -0.21367799 -0.039103195 -0.017530896 -0.09533463
000350 75 1d da bd 59 4b 91 3d a6 f3 2b 3d 8a 5a 66 3d
       -0.1065015 0.070944495 0.041980408 0.05623869
000360 ca 62 19 be c8 8f c3 bd 62 d5 44 be e7 90 91 bd
       -0.14979091 -0.095489085 -0.19222024 -0.07107716
000370 89 7a 5a be cf 24 59 3d fc 22 38 3e 05 a6 2f be
       -0.21335806 0.05301362 0.17982095 -0.17153175
000380 ce 4a 2b bd 82 ce 1b 3e 06 c9 35 bd 70 0f 24 3e
       -0.041819386 0.15215495 -0.044381164 0.16021514
000390 b6 5a 38 be a5 29 9d bb 8d 71 1a be 64 48 4b 3c
       -0.18003353 -0.004796224 -0.15082379 0.012407396
0003a0 e2 23 b0 bc d3 99 28 3e a0 c3 aa 3d e9 84 8a 3d
       -0.021501485 0.1646493 0.08338094 0.06763632
0003b0 59 1e 7b be 25 bd f5 bc 63 77 9f bc 25 d7 22 bd
       -0.24523295 -0.029997418 -0.019466108 -0.03975596
0003c0 2a ac de 3d d3 9f 6a bd 1a 88 c4 bc 1a 44 ac 3d
       0.108726814 -0.057281327 -0.02399068 0.08411427
0003d0 b3 96 22 bd 9f 72 09 3e 0b 48 8f bd 44 a8 57 be
       -0.0396945 0.1342263 -0.06996163 -0.21060282
0003e0 85 a3 45 be 98 ed 38 be 27 e0 88 3d 49 49 17 bb
       -0.19300659 -0.18059385 0.06683379 -0.0023084453
0003f0 4b cf 25 be 59 4b 53 3e c8 03 0e be 67 8d c4 bd
       -0.16192357 0.20634212 -0.1386863 -0.09597283

encoder_gru.bias_ih_l1 f4 [54]
000000 50 41 40 3d e2 f5 bc 3d df c6 46 bd 51 37 79 3d
       0.046937287 0.09226586 -0.048529502 0.06084377
000010 b1 5f 11 bd 67 f5 5d be 19 78 b8 bd 78 e3 2e bd
       -0.03549165 -0.21675645 -0.09007282 -0.0426974
000020 b1 83 07 be 15 db 4f 3e d6 0b 1c be 90 04 84 bd
       -0.1323383 0.20298417 -0.1523889 -0.06446183
000030 b4 c6 61 bc 1b 5a 81 bd 38 3d 9b bd 2b 47 a0 bd
       -0.013780285 -0.063160144 -0.07580036 -0.07826074
000040 53 b9 aa bd c0 de 70 3d d7 31 a8 bd 17 b6 a9 3d
       -0.08336129 0.05880618 -0.08212631 0.08286684
000050 4f c1 52 3e 38 d9 24 3e cd 6d 9f 3c 6e fd 27 be
       0.20581554 0.16098487 0.019461537 -0.1640527
000060 f3 be 12 be 9a 74 28 3d 80 24 8e 3d d7 c0 07 3c
       -0.14330654 0.041126825 0.069405556 0.008285723
000070 91 e8 33 3c d0 4e c9 3d 13 93 14 3c 83 9a 87 bd
       0.010980741 0.098294854 0.009068268 -0.06621268
000080 09 9b 93 3d 15 af 24 be 5f 58 32 3e 8d d0 db 3d
       0.07207305 -0.16082413 0.17416523 0.10733137
000090 6d a3 d5 bc 23 89 c5 bd 1f 38 55 be 13 e1 5e be
       -0.026078904 -0.096452974 -0.2082219 -0.21765547
0000a0 c4 0d 24 3e 29 4e 3f 3e a2 79 aa 3c 70 d5 b1 3d
       0.16020876 0.1868216 0.020809952 0.08683288
0000b0 3c 80 2e 3e bf 56 66 3d de ea b0 bd a9 c5 f6 bd
       0.17041105 0.05623507 -0.08638547 -0.120494194
0000c0 b2 56 1d be 80 e7 ca bd cb 9b 00 be be b7 46 be
       -0.15365103 -0.09907436 -0.1255943 -0.1940603
0000d0 ef b7 a0 3d 30 de c8 3d
       0.078475825 0.09808004
