models/v2/pedigree_result_AE.pth (torch, 481890 bytes, 12 tensors)

encoder.0.weight f4 [147, 226]
0	0xbd63963a	-0.05556319
1	0x3cff5166	0.031166743
2	0xbb52d135	-0.0032168154
3	0x3d468a1c	0.048471555
4	0x3d3b98be	0.045799963
5	0xbd0fdc5e	-0.035122268
6	0xbcd5f852	-0.026119385
7	0x3c89fd19	0.01684432
8	0xbd6eb4b8	-0.058277816
9	0xbcce30cf	-0.025169758
10	0x3b281a5e	0.0025650482
11	0xbd45bf88	-0.04827836
12	0x3d1b6280	0.037935734
13	0xbc39f336	-0.01134949
14	0x3e9212df	0.28530023
15	0x3d0ea39b	0.034823995
16	0xbd26a7d1	-0.040687386
17	0x3ebc709f	0.36804673
18	0x3cad62e9	0.021165328
19	0xbcf4a5a0	-0.029864132
20	0xbcbb17ec	-0.022838555
21	0x3cc67f84	0.024230726
22	0xbd89ca42	-0.06728031
23	0xbcdc1ff5	-0.026870707
24	0xbc5755e9	-0.013143041
25	0x3d45508e	0.048172526
26	0x3cf83b44	0.030301698
27	0x3c84c187	0.016205562
28	0x3cd81809	0.026378648
29	0xbd64cca6	-0.05585923
30	0xbd6b07d7	-0.057380524
31	0x3c0f0a3e	0.008730469
32	0xbcdcd227	-0.026955677
33	0xbe1176bc	-0.1420545
34	0xbd8452f0	-0.064611316
35	0x3c8df423	0.017328328
36	0x3d90281c	0.070389
37	0xbd3aa1e6	-0.045564555
38	0xbd4a8012	-0.049438544
39	0x3b85a804	0.004078867
40	0x3c812696	0.01576547
41	0x3cf51cc2	0.02992094
42	0x3d3886a1	0.045050267
43	0xbcc89d03	-0.024488932
44	0xbcb4e05a	-0.022079635
45	0xbbe11d9e	-0.0068699857
46	0x3d130f3a	0.035903193
47	0xbca9bb2e	-0.020719137
48	0xbcf1e15f	-0.02952641
49	0xbcf297cc	-0.029613398
50	0x3c11d769	0.008901455
51	0xbd8fd136	-0.07022326
52	0xbd35a130	-0.044343174
53	0xbd2ee518	-0.04269895
54	0x3bed9fb9	0.0072517064
55	0x3cff4dde	0.03116506
56	0x3d4d3964	0.05010356
57	0xbca36dce	-0.01994982
58	0x3bc9498b	0.0061428
59	0xbcc67795	-0.024226943
60	0xbc9f18f7	-0.019421084
61	0x3b53f587	0.003234239
62	0x3dadca12	0.084858075
63	0xbbb76a3a	-0.00559738
64	0x3d585a2e	0.052820377
65	0x3c3b6b09	0.011439093
66	0x3ddf3cef	0.10900294
67	0xbc0683f3	-0.00821017
68	0x3d100823	0.03516401
69	0x3cf5e0ca	0.030014414
70	0x3d5bce7f	0.053663727
71	0xbdae2daa	-0.085048035
72	0xbce672e2	-0.028130952
73	0xbcd8f4be	-0.02648389
74	0xbd1eec5e	-0.038799636
75	0xbcf5c0e1	-0.029999198
76	0x3dca886e	0.09889303
77	0x3cbf73c4	0.023370631
78	0xbd1959f4	-0.0374393
79	0x3e77368e	0.24141905
80	0xbe0a80a1	-0.1352563
81	0xbcb3b27f	-0.0219357
82	0xbaa5c552	-0.0012647307
83	0xbc2c77cc	-0.010526609
84	0xbe9c57f8	-0.30535865
85	0xbdfdace7	-0.12386494
86	0xbdb7594d	-0.0895258
87	0xbbc8f06e	-0.006132177
88	0xbd486c2e	-0.048931293
89	0x3baf7b32	0.005355262
90	0xbd0ab665	-0.03386535
91	0xbcbd2101	-0.023087027
92	0xbd261572	-0.040547796
93	0xbcb72080	-0.022354364
94	0x3d0ef91a	0.03490553
95	0xbd37dda5	-0.04488911
96	0xbd1716a1	-0.036886815
97	0x3c4547cb	0.012041043
98	0x3d0a5b78	0.033778638
99	0xbcff9a4f	-0.03120151
100	0xbba3a805	-0.0049943947
101	0xbb04f4c7	-0.00202875
102	0xbd6cf059	-0.0578464
103	0x3d6ee949	0.058327947
104	0xbaf0cc16	-0.0018371369
105	0x3d79f75e	0.061026923
106	0x3d11a59e	0.035558335
107	0x3b0b1738	0.0021223556
108	0xba2baf2e	-0.0006549236
109	0x3bfe1b8a	0.0077547478
110	0x3c20344c	0.009778094
111	0xbd4f102a	-0.050552525
112	0xbcf004f8	-0.029299244
113	0xbc0a57bf	-0.008443772
114	0xbcaa1743	-0.020763045
115	0x3d3530ea	0.0442361
116	0x3d183736	0.03716203
117	0x3d418e2a	0.04725472
118	0x3d1db1c6	0.038499616
119	0x3d671e47	0.05642536
120	0xbc1f2a87	-0.009714729
121	0xbd39cf51	-0.045363728
122	0xbc8d1a8c	-0.017224573
123	0xbcae5f4d	-0.021285677
124	0x3ba320b7	0.004978265
125	0x3cae2084	0.021255739
126	0xbc88a092	-0.016678128
127	0x3c348edf	0.011020391
128	0x3d4748c5	0.048653383
129	0xbc48ff7c	-0.0122679435
130	0xbc559b72	-0.013037549
131	0x3dbc91a4	0.09207466
132	0x3dd4c27b	0.10388657
133	0x3dd9bcf2	0.106317416
134	0x3c3bd4f0	0.0114643425
135	0xbd0c8cc9	-0.03431395
136	0x3b2abb27	0.0026051493
137	0xbc595e3f	-0.013267099
138	0x3b9757aa	0.0046186047
139	0xbd746d55	-0.05967458
140	0xbd2b47f3	-0.041816663
141	0x3cb28a18	0.021794364
142	0xbd2bf20a	-0.041978873
143	0x3d05d406	0.032672904
144	0x3d07622b	0.033052605
145	0xbd4a5149	-0.049393926
146	0xbce3e6b1	-0.027819963
147	0xbd366387	-0.04452851
148	0xbc56a13f	-0.0130999675
149	0xbd16cdd1	-0.036817376
150	0xbd064d2f	-0.03278845
151	0x3c982e4d	0.018576765
152	0x3d14fe16	0.036375128
153	0x3d0ee7d7	0.03488907
154	0xbd23a01d	-0.039947618
155	0xbc8d2f45	-0.017234454
156	0xbd4b6b03	-0.0496626
157	0x3b8cc055	0.0042953887
158	0xbe027ed0	-0.12743688
159	0x3cd49d5b	0.02595394
160	0x3d94d4be	0.0726714
161	0x3d1c5bf5	0.038173635
162	0x3c298439	0.010346466
163	0x3d946e51	0.07247604
164	0xbc898024	-0.016784735
165	0x3d93f968	0.07225305
166	0x3dcf37e6	0.10118084
167	0x3d2e387c	0.042534336
168	0x3d09b0f8	0.033616036
169	0xbcbf35ee	-0.023341145
170	0xbd1d4516	-0.038395964
171	0xbd2198f1	-0.039452497
172	0xbe0a4835	-0.13504107
173	0xbdcee711	-0.10102666
174	0xbde20041	-0.11035205
175	0xbce5ce2c	-0.028052412
176	0x3d11a21f	0.035555
177	0xbd52b72a	-0.05144421
178	0xbb94c868	-0.004540492
179	0xbd751020	-0.05982983
180	0x3ca76e8b	0.020438453
181	0x3bd23645	0.006415161
182	0x3d2563c5	0.04037835
183	0xbd85b43c	-0.065285176
184	0x3d1e4f46	0.03864982
185	0x3cca90a2	0.02472717
186	0xbd16a768	-0.036780745
187	0x3cf60d60	0.030035675
188	0xbd719ddd	-0.05898844
189	0xbd90643b	-0.070503674
190	0xbd61e9be	-0.055154555
191	0xbb1b78b4	-0.0023723068
192	0xbd4ba89f	-0.049721356
193	0xbc095df1	-0.008384214
194	0xbcda46c6	-0.026645076
195	0x3c753976	0.014967313
196	0xbcf0e926	-0.029408049
197	0xbd4411f2	-0.047868676
198	0xbe0aa50c	-0.13539523
199	0xbd8005c1	-0.062510975
200	0xbda5274b	-0.08064135
201	0x3bb836cc	0.0056217667
202	0x3d0093be	0.031390898
203	0xbbb920f6	-0.005649681
204	0xbcfb68ba	-0.030689586
205	0xbcbb1d51	-0.022841128
206	0xbd525e14	-0.05135925
207	0x3d2c1bdd	0.04201876
208	0xbc25a81d	-0.010110882
209	0x3d434693	0.047674727
210	0x3c62b709	0.013837584
211	0xbd3db821	-0.046318177
212	0x3d6953e1	0.05696476
213	0xbc0d8398	-0.008637331
214	0x3d5599f9	0.052148793
215	0xbd241377	-0.040057626
216	0x3d741c7f	0.05959749
217	0xba198292	-0.00058559433
218	0x3ac8f402	0.0015331509
219	0x3d412063	0.047150027
220	0x3c31661f	0.01082757
221	0x3d76a552	0.060216255
222	0x3d730e35	0.05933972
223	0xbc170e9b	-0.009219791
224	0xbd0bf486	-0.034168743
225	0xbd998387	-0.0749579
226	0x3caa348d	0.020777011
227	0xbbefb7b0	-0.0073155984
228	0xbce618a7	-0.028087927
229	0x3c905b50	0.017621666
230	0xbd93812e	-0.072023734
231	0x3ca56f69	0.020194726
232	0xbd2115a6	-0.039327286
233	0xbd33fe8b	-0.043943923
234	0x3d71e67d	0.0590577
235	0xbc406837	-0.011743597
236	0xbc9cc966	-0.019139003
237	0x3ca95004	0.020668037
238	0xbc53ddd3	-0.012931305
239	0x3d20f826	0.039299153
240	0xbe167f89	-0.14697088
241	0x3d11de93	0.035612654
242	0x3cea023f	0.028565524
243	0x3d22f71f	0.039786454
244	0xbd83efb8	-0.06442207
245	0x3b217a7e	0.0024639661
246	0xbd17424a	-0.036928453
247	0x3d20fa10	0.03930098
248	0xbd5896d5	-0.05287822
249	0x3cf4dd7d	0.02989077
250	0xbd8facd2	-0.07015385
251	0xbd2c719d	-0.042100538
252	0xbd692e70	-0.056929052
253	0x3d1abf59	0.03778014
254	0xbd81cc67	-0.06337815
255	0x3d3f981b	0.04677592

encoder.0.bias f4 [147]
0	0xbd4cc80b	-0.049995463
1	0xbccf7c44	-0.02532781
2	0xbee6a29b	-0.45045933
3	0x3e20284a	0.15640369
4	0xbdf63d4a	-0.12023409
5	0xbe33f5c8	-0.17574227
6	0xbdb1ccc8	-0.08681637
7	0xbe3cd0bf	-0.18439005
8	0xbdbe6e1c	-0.092983454
9	0xbdf92857	-0.12165897
10	0xbe0ad3c0	-0.13557339
11	0x3d43147f	0.04762697
12	0xbdbe0c50	-0.09279692
13	0xbe2ccc80	-0.16874886
14	0x3ca6803e	0.020324823
15	0xbe8d512b	-0.2760099
16	0xbf3b4e1b	-0.73166054
17	0xbb2f05d0	-0.0026706345
18	0xbc113cd4	-0.0088646
19	0xbe7358bb	-0.23764317
20	0xbbbb7250	-0.005720414
21	0xbd6bfe30	-0.05761546
22	0xbde6bff9	-0.11267085
23	0xbe28240e	-0.16420004
24	0xbe025beb	-0.12730376
25	0xbd32c3e0	-0.043643832
26	0xbd80f7cd	-0.06297264
27	0xbccde195	-0.02513198
28	0xbd8a7c99	-0.06762046
29	0xbe2a96a6	-0.1665903
30	0xbd5981f0	-0.053102434
31	0xbcf5855f	-0.029970823
32	0xbdd5d8b8	-0.104417264
33	0xbe9e45ac	-0.3091253
34	0xbe174e97	-0.14776073
35	0xbe9c033c	-0.30471218
36	0xbe151f91	-0.14562823
37	0x3da6f311	0.0815183
38	0xbf054b8b	-0.52068394
39	0xbe9190e1	-0.28430846
40	0xbe3153f5	-0.17317183
41	0xbe8f2396	-0.27956837
42	0xbebb1710	-0.36541033
43	0xbddc6749	-0.107618876
44	0xbd8e350b	-0.06943711
45	0xbdfc08c5	-0.1230636
46	0xbd9278cf	-0.07151949
47	0xbde84792	-0.11341776
48	0xbe105131	-0.14093472
49	0xbea1815b	-0.31544003
50	0xbe580b87	-0.21098147
51	0xbdce8371	-0.10083664
52	0xbe93f9f7	-0.28901646
53	0xbd84bac7	-0.064809375
54	0xbc6d5f25	-0.014488016
55	0x3b03d80c	0.0020117788
56	0xbe4ca231	-0.19983746
57	0xbe7e599a	-0.24838868
58	0xbe878a59	-0.26472738
59	0xbaa9dc9f	-0.0012959427
60	0xbeb58edb	-0.35460553
61	0xbe831600	-0.25602722
62	0xbe0af575	-0.13570197
63	0x3d384b23	0.04499353
64	0xbeb47a2c	-0.3524946
65	0xbe7957b3	-0.24349861
66	0xbd72268d	-0.059118796
67	0xbd8ca871	-0.06868065
68	0xbe4e427c	-0.2014255
69	0xbd53f08d	-0.05174308
70	0xbe03b92d	-0.12863608
71	0xbb7ba474	-0.0038397582
72	0xbdde2820	-0.10847497
73	0xbecb2ea6	-0.39684027
74	0x3dabf00e	0.08395396
75	0xbea3d80b	-0.32000765
76	0xbe31299e	-0.17301032
77	0xbd9e0986	-0.0771666
78	0xbe27f7b2	-0.16403082
79	0x3d9c86a4	0.07642868
80	0xbdb4986f	-0.08818137
81	0xbd619979	-0.055078004
82	0xbef1a732	-0.47197872
83	0x3de7c97a	0.113177255
84	0xbe21bfc6	-0.15795812
85	0xbee14ec7	-0.44005415
86	0xbbbc243a	-0.005741623
87	0xbd99c846	-0.07508902
88	0xbe051534	-0.1299637
89	0x3c4a30eb	0.0123407645
90	0xbe51be7c	-0.2048282
91	0xbeed5690	-0.46355104
92	0xbe912c66	-0.28354186
93	0x3b9be1a5	0.0047571235
94	0xbe023924	-0.1271711
95	0xbe0b4332	-0.13599852
96	0xbe0ae99d	-0.13565679
97	0x3d0a20d5	0.033722717
98	0xbd6ff931	-0.058587257
99	0xbe06a214	-0.13147765
100	0xbe3cce52	-0.1843808
101	0xbdf4d433	-0.11954536
102	0xbd4bfbde	-0.049800746
103	0xbddbe14d	-0.10736332
104	0xbe11c86a	-0.14236608
105	0xbe4673ac	-0.19380063
106	0xbe13b7b5	-0.14425547
107	0xbc3d7f4e	-0.011565996
108	0xbea46665	-0.3210937
109	0x3ba4f690	0.0050342754
110	0xbeb61edb	-0.35570416
111	0xbe4b37cd	-0.19845505
112	0xbdfccd80	-0.123438835
113	0xbe9922e0	-0.2990942
114	0xbd864c53	-0.065575264
115	0x3da2057e	0.07911204
116	0xbda0779c	-0.07835314
117	0xbde974db	-0.113992415
118	0xbd627150	-0.055283844
119	0xbd8aefb8	-0.06784004
120	0xbd2d57a6	-0.042319916
121	0xbdf17b07	-0.11791044
122	0xbdff9674	-0.124798685
123	0xbe02a2b9	-0.12757386
124	0xbc68915e	-0.0141948145
125	0xbc7ff3e3	-0.015622112
126	0xbec7510f	-0.3892903
127	0x3d16519c	0.036698923
128	0xbd8a8dcc	-0.06765327
129	0xbd499a6f	-0.049219545
130	0xbd6ad66d	-0.0573334
131	0xbe6f7cb2	-0.23387411
132	0xbe131558	-0.1436361
133	0xbdcf9fb1	-0.101378806
134	0x3df7334c	0.12070331
135	0xbd8a5923	-0.06755283
136	0xbe85d273	-0.26137123
137	0x3d98815e	0.0744655
138	0xbd6c0546	-0.057622217
139	0x3e2c1546	0.1680499
140	0xbe3ba6eb	-0.18325393
141	0xbd743ea1	-0.05963004
142	0xbd4707dc	-0.04859148
143	0xbe15a772	-0.14614657
144	0xbdc1dc0d	-0.094657995
145	0xbe24b17a	-0.16083327
146	0x3c7f7400	0.015591621

encoder.3.weight f4 [147, 147]
0	0xbd02f46a	-0.031971373
1	0xbc5e977c	-0.013585921
2	0xbe251d6b	-0.16124503
3	0xbe2b2af2	-0.16715601
4	0xbdb31d6c	-0.08745846
5	0x3ef25440	0.47329903
6	0xbdeb4747	-0.114882044
7	0xbc692677	-0.014230362
8	0xbe8d8e6a	-0.27647716
9	0xbd253a62	-0.04033888
10	0xbc29895b	-0.0103476895
11	0xbe65ca91	-0.22440554
12	0x3d77fc14	0.060543135
13	0xbcb2bada	-0.021817613
14	0xbd217698	-0.03941974
15	0x3d11fe91	0.035643164
16	0x3d926579	0.071482606
17	0x3de8226e	0.11334692
18	0x3db6b4d1	0.08921207
19	0x3ebfc475	0.37454572
20	0xbe00872b	-0.12551562
21	0xb946137f	-0.00018890014
22	0xbd110d65	-0.035413165
23	0xbcf3ff89	-0.029784935
24	0xbe9465a2	-0.2898379
25	0xbdfb30fa	-0.12265201
26	0xbdd61709	-0.10453612
27	0xbd9dd288	-0.07706171
28	0xbdb1d564	-0.08683279
29	0x3dbb4535	0.091440596
30	0xbdd41137	-0.10354846
31	0xbd20fc0d	-0.039302874
32	0x3ba312d9	0.004976612
33	0x3d20d500	0.039265633
34	0x3ce5e113	0.028061425
35	0xbb5472bf	-0.0032417027
36	0xbcb651f6	-0.022255879
37	0xbd956965	-0.07295493
38	0xbe85274b	-0.2600654
39	0xbb427b63	-0.0029675595
40	0xbd388cc9	-0.04505614
41	0x3a03a331	0.0005021571
42	0x3e236be0	0.1595912
43	0xbdbe35f0	-0.092876315
44	0x3d4879ac	0.04894416
45	0x3ba0a8b5	0.004902924
46	0xbe047e79	-0.1293887
47	0x3c283d75	0.010268559
48	0xbe575734	-0.21029359
49	0xbc8ce12b	-0.017197212
50	0x3dcb8199	0.09936828
51	0x3c8a8b87	0.016912235
52	0x3c968e82	0.0183785
53	0x3df992b0	0.121861815
54	0xbc8d1429	-0.017221527
55	0xbc93a912	-0.018024955
56	0xbd0e8c1f	-0.0348016
57	0x3c536381	0.012902142
58	0x3dcf432c	0.10120234
59	0xbd4d6748	-0.050147325
60	0x3d2c0631	0.041998092
61	0xbe695221	-0.22785236
62	0x3d04927a	0.032366253
63	0xbddd5e5b	-0.108090125
64	0x3d81e1aa	0.0634187
65	0xbe2375f9	-0.15962972
66	0x3c59851d	0.013276366
67	0xbcc40a7f	-0.023930786
68	0xbd7dbb4f	-0.06194621
69	0x3a923ccc	0.0011157035
70	0xbd832ad8	-0.06404656
71	0xba1e9c17	-0.0006050481
72	0xbd9120d2	-0.07086338
73	0x3d4e5112	0.050370283
74	0x3e41a23c	0.18909544
75	0xbd97a6ce	-0.07404862
76	0xbd5a0bd9	-0.053233955
77	0x3bb62953	0.0055591254
78	0x3c56bd4b	0.013106654
79	0x3c9dbb37	0.01925431
80	0x3c087346	0.008328265
81	0xbdbdaba8	-0.092612565
82	0xbcd17ed1	-0.025573166
83	0xbd7242c6	-0.05914571
84	0xbc189498	-0.009312771
85	0x3bf607bf	0.0075082476
86	0xbdaabcae	-0.08336769
87	0xbdbfc464	-0.093636304
88	0xbda9c1eb	-0.0828894
89	0xbd931c23	-0.07183101
90	0xbdd27343	-0.10275891
91	0x3aaf7542	0.0013386386
92	0x3cbc50bc	0.022987716
93	0xbdbae1a9	-0.091250725
94	0xbdafa2b6	-0.085759565
95	0x3c6c6bf3	0.014430034
96	0x3d46d6cd	0.048544694
97	0xbe0f2514	-0.13978988
98	0xbd657b5d	-0.05602585
99	0xbd9eb951	-0.0775019
100	0xbd02edb0	-0.031964958
101	0xbd312cf1	-0.04325575
102	0x3c1a329c	0.00941148
103	0xbd17c622	-0.03705419
104	0xbeacea78	-0.33772635
105	0xbd9e2a1b	-0.07722875
106	0xbd8964ae	-0.06708656
107	0xbd89a923	-0.067217134
108	0xbd491044	-0.049087778
109	0x3d4e061d	0.0502988
110	0xbcd68bb1	-0.026189657
111	0xbd13dca4	-0.03609909
112	0xbd119f22	-0.03555215
113	0x3cde9c5a	0.027174164
114	0xbd680429	-0.056644592
115	0x3ddae26b	0.10687717
116	0x3bad1092	0.0052815164
117	0xbdc31eaf	-0.09527337
118	0x3cc0db89	0.023542183
119	0xbdd47e3a	-0.10375638
120	0xbdf96b89	-0.12178714
121	0xbe24ee29	-0.16106476
122	0xbd8e3329	-0.06943352
123	0x3df3b554	0.1189982
124	0xbc957324	-0.01824338
125	0xbd44ca59	-0.048044536
126	0xbdcad944	-0.099047214
127	0xbdbc51a8	-0.09195262
128	0x3d00ccf4	0.03144546
129	0x3c993e61	0.018706502
130	0xbe042d5a	-0.12907925
131	0xbbdeeb63	-0.0068029626
132	0xbd9ab667	-0.07554322
133	0xbc359430	-0.011082694
134	0x3e1657b4	0.14681894
135	0x3d20b900	0.03923893
136	0xbdeedc61	-0.11663128
137	0xbde5c75d	-0.11219666
138	0xbdf04eba	-0.11733766
139	0x3c6de8f8	0.014520876
140	0xbde26238	-0.1105389
141	0x3d37b6b0	0.04485196
142	0xbdc807f3	-0.09767141
143	0xbd99432a	-0.07483514
144	0xbd530aff	-0.05152416
145	0xbdae356e	-0.08506285
146	0xbb5a140c	-0.003327611
147	0xbd99f6ee	-0.07517801
148	0x3c7b6c77	0.015345684
149	0x3cf8dd45	0.030378947
150	0xbcfb2537	-0.030657394
151	0x3d7c91d1	0.0616625
152	0xbd312ac4	-0.043253675
153	0xbc661819	-0.014043831
154	0x3d6ba166	0.05752697
155	0xbc88cdfc	-0.016699784
156	0xbe372846	-0.17886457
157	0xbd265fa6	-0.04061856
158	0xbd7a7c42	-0.061153658
159	0xbc887f56	-0.016662281
160	0xbdfe1ead	-0.12408195
161	0x3ce33530	0.027735323
162	0xbb1e26de	-0.0024132053
163	0xbd125e3e	-0.035734408
164	0x3c9c6184	0.019089468
165	0xbd9fc008	-0.07800299
166	0x3dd53ebe	0.10412358
167	0xbba78a77	-0.005112942
168	0xbe0d0d39	-0.13774575
169	0xbbfbfa47	-0.0076897475
170	0x3deb3519	0.11484737
171	0xbd9291c6	-0.0715671
172	0x3c979088	0.018501535
173	0xbcabb193	-0.020958697
174	0xbcb7658c	-0.022387289
175	0xbc946297	-0.018113418
176	0x3d15c00b	0.0365601
177	0x3d9a20ed	0.07525811
178	0xbd9c183b	-0.07621809
179	0x3d196199	0.037446592
180	0x3d393f6a	0.045226492
181	0xbd12b4ea	-0.035817064
182	0x3d1c5523	0.03816713
183	0xbc9d9d0e	-0.019239929
184	0xbc827b0b	-0.015927812
185	0xbb564aba	-0.003269835
186	0xbd3bd239	-0.04585478
187	0xbca72290	-0.020402223
188	0x3de0e9f1	0.10982121
189	0x3d8bde06	0.06829457
190	0xbdfd2df4	-0.123622805
191	0x3aced4b7	0.0015779947
192	0xbd1c14cb	-0.038105767
193	0x3c22c3be	0.009934364
194	0xbcd4be83	-0.02596975
195	0xbd443fb5	-0.04791232
196	0x3d402a97	0.046915617
197	0x3dee859c	0.11646578
198	0x3b28d7c4	0.0025763372
199	0x3d7b0d3b	0.061291914
200	0x3c8903e6	0.016725492
201	0xbd81b671	-0.06333626
202	0xbc8c7747	-0.01714672
203	0xbdd1aeed	-0.102384426
204	0x3c8aff0a	0.016967315
205	0x3d39273e	0.04520344
206	0x3c17e1da	0.009270156
207	0x3bb03a1e	0.005378022
208	0x3d05348d	0.03252082
209	0x3db82df7	0.08993142
210	0xbce655a3	-0.028117007
211	0xbd2fe730	-0.042945087
212	0x3d417920	0.047234654
213	0xbd7d0f78	-0.06178233
214	0xbdf75780	-0.12077236
215	0x3d9c28e2	0.07624985
216	0xbe08ecbe	-0.1337156
217	0xbcbec605	-0.023287782
218	0x3bb7d088	0.0056095757
219	0x3e29b610	0.16573358
220	0xbc35e2b6	-0.011101415
221	0x3bf3d431	0.0074410667
222	0xbd56b0fa	-0.05241487
223	0x3c52bdf8	0.012862675
224	0x3e382441	0.1798258
225	0xbc2a63a7	-0.0103997355
226	0xbddb186e	-0.10698019
227	0xbb22bcb9	-0.0024831726
228	0x3d85b16c	0.06527981
229	0x3b0b0837	0.0021214613
230	0xbd079d50	-0.03310901
231	0x3cb37291	0.021905215
232	0x3cf3da13	0.029767072
233	0xbe0fb36c	-0.14033288
234	0xbdaeb7fc	-0.08531186
235	0xbc4ecdc1	-0.012622298
236	0xbe2b98e3	-0.1675754
237	0xbd28f805	-0.041252155
238	0x3c73ed0e	0.014888061
239	0x3c522743	0.012826744
240	0xbda2b77e	-0.079451546
241	0xbe1500f4	-0.14551145
242	0xbd67b4dc	-0.056568965
243	0x3d9142a8	0.07092792
244	0x3c39e63c	0.011346396
245	0xbd8394fa	-0.064248994
246	0x3c2e6e49	0.010646411
247	0x3ce97f60	0.02850312
248	0xbddd1ef1	-0.10796917
249	0xbd9affb0	-0.075683
250	0x3e09757f	0.13423727
251	0xbdb8dbf4	-0.09026328
252	0xbb46185d	-0.0030226924
253	0x3c1abb74	0.009444106
254	0xbe12181a	-0.14267007
255	0xbc71dd18	-0.0147621855

encoder.3.bias f4 [147]
0	0xbdeaa1e7	-0.11456662
1	0xbe0f276f	-0.13979886
2	0xbe548d01	-0.20756914
3	0xbd09b00f	-0.03361517
4	0xbca9cdab	-0.020727953
5	0x3c7c74e9	0.015408733
6	0x3d73bde1	0.059507255
7	0xbd4abfeb	-0.049499433
8	0x3d3c016c	0.045899794
9	0xbe1e625d	-0.1546721
10	0xbb34a7d3	-0.0027565851
11	0xbe0d4d85	-0.13799103
12	0xbc50bd56	-0.012740454
13	0x3d0c76b4	0.03429289
14	0x3cd814ad	0.026377046
15	0xbe7a2975	-0.24429877
16	0xbca3c992	-0.019993577
17	0xbdcdf52b	-0.10056528
18	0xbe3df9bc	-0.18552297
19	0xbdf5295d	-0.1197078
20	0xbe0e8129	-0.13916458
21	0x3d9a2546	0.075266406
22	0xbdcfb5a9	-0.10142071
23	0xbe0539eb	-0.13010375
24	0xbe3cc8f2	-0.1843603
25	0xbc802097	-0.01564054
26	0xbe9e5b00	-0.30928802
27	0xbc94730a	-0.018121261
28	0xbdbc101d	-0.09182761
29	0xbd627280	-0.055284977
30	0x3bdb3e24	0.0066907573
31	0xbe90bcaf	-0.28268954
32	0xbd338f2f	-0.043837722
33	0xba8c28f8	-0.0010693362
34	0xbe0459dd	-0.12924905
35	0x3d9c1642	0.07621433
36	0xbe4e9310	-0.20173287
37	0xbe24ad34	-0.16081697
38	0xbdc94cbc	-0.09829089
39	0xbe076e1c	-0.13225597
40	0xbe15f931	-0.1464584
41	0xbe2fc514	-0.17165023
42	0x3e50ee9c	0.20403522
43	0xb8bd93c7	-9.039748e-05
44	0x3e2838de	0.16427943
45	0xbc0964a8	-0.008385815
46	0x3cb4fd4b	0.022093436
47	0xbe9d84b8	-0.3076532
48	0xbd36b89f	-0.044609662
49	0xbceda27b	-0.02900814
50	0x3d721408	0.059101135
51	0xbeaf6435	-0.3425614
52	0xbd0df4ce	-0.034657292
53	0xbdcc2f0c	-0.09969911
54	0xbf20ed8f	-0.62862486
55	0x3db77891	0.08958543
56	0xbca84fa7	-0.020545794
57	0xbbeae8a8	-0.007168848
58	0xbb529a04	-0.0032135257
59	0xbdf8647d	-0.121285416
60	0xbd81f6f2	-0.06345929
61	0xbdf06094	-0.11737171
62	0xbcc0911a	-0.02350669
63	0x3d803286	0.062596366
64	0xbdccc386	-0.09998231
65	0x3cbbf706	0.022944938
66	0x3dba416e	0.09094511
67	0xbe84f0d8	-0.25965
68	0xbe90ff2e	-0.28319687
69	0x3d94022f	0.07226979
70	0xbd0c6ce9	-0.034283552
71	0xbd8c3678	-0.068463266
72	0xbb036884	-0.002005131
73	0xbee38d12	-0.44443566
74	0xbd384abe	-0.044993155
75	0xb90087c9	-0.00012257615
76	0xbdffd795	-0.12492291
77	0x3d6ae58b	0.057347815
78	0xbce4962a	-0.027903635
79	0xbf1ef781	-0.6209641
80	0xbe2a9da4	-0.16661698
81	0x3d704446	0.05865886
82	0xbe4f8ef4	-0.20269376
83	0xbdb9e130	-0.09076154
84	0xbf220a8b	-0.6329734
85	0x3d95d6db	0.07316371
86	0x3d287264	0.041124716
87	0x3d9622e4	0.073308736
88	0xbdbd2bb9	-0.09236855
89	0xbe000fbf	-0.12506007
90	0xbd9f24b4	-0.077706724
91	0x3d84628a	0.06464107
92	0x3d4c93d0	0.049945652
93	0xbd926a6b	-0.07149204
94	0xbd6c89e6	-0.057748698
95	0xbde28f4d	-0.11062489
96	0xbde8d246	-0.113682315
97	0xbe054a95	-0.13016732
98	0xbee6967b	-0.45036682
99	0xbe1f8fab	-0.15582149
100	0xbf011c9c	-0.5043428
101	0x3dfde6bc	0.12397525
102	0x3d47ac33	0.048748206
103	0xbed36f5c	-0.41295898
104	0x3d7aa100	0.061188698
105	0x3c14503d	0.009052333
106	0xbf18ddfa	-0.5971371
107	0xbc5f6730	-0.013635442
108	0xbdf480a6	-0.119386
109	0xbd8d8b48	-0.069113314
110	0xbe8b0ba7	-0.27157328
111	0xbc0e8612	-0.008698957
112	0xbdcf0a79	-0.101094194
113	0xbf5a828c	-0.8535545
114	0x3ceb6c3b	0.028738132
115	0xbcac6907	-0.021046175
116	0xbd3c637f	-0.045993324
117	0xbd84f63d	-0.06492279
118	0x3d13b094	0.03605707
119	0xbbdd3a69	-0.006751348
120	0x3c0540dc	0.008133139
121	0x3db8c102	0.09021188
122	0x3cebc1e1	0.028778972
123	0x3cb62188	0.022232786
124	0x3d8b5c9e	0.06804775
125	0x3c94b7f2	0.018154118
126	0x3c74f1a2	0.014950188
127	0xbe038de6	-0.12847099
128	0xbf009d37	-0.5023989
129	0x3e118e0b	0.14214341
130	0xbdf5f730	-0.12010038
131	0xbd48bf1f	-0.049010392
132	0xbe1e7c0f	-0.15477012
133	0xbf575501	-0.8411408
134	0xbe0a49d7	-0.1350473
135	0xbefcdacb	-0.49385676
136	0x3d927189	0.07150561
137	0xbd4c7e96	-0.04992541
138	0x3cc74ae2	0.0243277
139	0xbdde1434	-0.10843697
140	0xbccfb5fc	-0.025355332
141	0x3d03badf	0.032160636
142	0xbe327a28	-0.17429411
143	0xbe6a2c8c	-0.22868556
144	0xbdf75f43	-0.120787166
145	0x3dd20e3b	0.102566205
146	0xbd439dec	-0.047758028

encoder.6.weight f4 [30, 147]
0	0x3cc864ed	0.024462188
1	0x3cb38baf	0.021917192
2	0x3bdf906a	0.0068226354
3	0xbd102ef8	-0.035201043
4	0x3dc279c4	0.09495881
5	0xbdb712c2	-0.08939125
6	0x3b5c00c8	0.0033569802
7	0x3d44ff57	0.048095074
8	0x3dbc6303	0.091985725
9	0xbe01c542	-0.12672904
10	0x3dc381a3	0.095462106
11	0xbd81e30d	-0.063421346
12	0x3e180304	0.148449
13	0xbd1acefa	-0.037795044
14	0xbb445905	-0.0029960286
15	0x3d32e3ae	0.043674164
16	0x3df36a95	0.11885563
17	0x3be8bbf4	0.007102484
18	0x3d77ea2f	0.06052607
19	0x3cb415ab	0.021982988
20	0x3dd268be	0.10273884
21	0xbc6fa523	-0.014626774
22	0x3da4ee3f	0.08053254
23	0x3d988047	0.07446342
24	0x3c3359b4	0.01094668
25	0x3caa7824	0.02080924
26	0x3b8c8105	0.0042878413
27	0xbda9aa0f	-0.08284389
28	0xbdadaf93	-0.08480754
29	0xbda230cc	-0.079194635
30	0xbc61926a	-0.013767818
31	0xbd88d05c	-0.066803664
32	0xbd02f873	-0.03197522
33	0x3d056091	0.032562796
34	0xbd880c24	-0.06642941
35	0xbcf75744	-0.030192979
36	0xbd5082f9	-0.050906155
37	0x3c9d27bd	0.019183988
38	0x3c8a3d63	0.016874975
39	0x3d6f46df	0.058417197
40	0x3d19ce01	0.037549976
41	0xbc365690	-0.011129037
42	0x3d195015	0.037429888
43	0xbde3ec47	-0.11129051
44	0x3d48bf6c	0.04901068
45	0x3c02af90	0.007976428
46	0xbdb9cf8e	-0.09072791
47	0xbc373bb1	-0.011183665
48	0xbd2e1291	-0.042498175
49	0x3d27c981	0.040963653
50	0xbd7f7a52	-0.062372513
51	0xbe043919	-0.12912406
52	0x3d51f08b	0.05125479
53	0xbca1f7ea	-0.019771535
54	0xbd776a7d	-0.06040429
55	0xbcb51cd6	-0.022108477
56	0xbdd02636	-0.10163538
57	0xbd963145	-0.07333616
58	0x3c3f9110	0.0116923
59	0xbd3839f6	-0.04497715
60	0x3cbbe943	0.022938376
61	0xbe16da74	-0.14731771
62	0x3da25463	0.07926252
63	0x3e4ab411	0.19795252
64	0x3d8cc401	0.06873322
65	0xbb6b5922	-0.0035911282
66	0x3d37a9e0	0.04483974
67	0xbd09c3c8	-0.033633977
68	0xbdbd1815	-0.09233109
69	0xbd460082	-0.048340328
70	0x3c8824c2	0.01661909
71	0x3d54ff8e	0.05200153
72	0x3dbc2787	0.09187227
73	0x3d7fc0e2	0.062439807
74	0x3e0855b6	0.13313946
75	0xbd50367a	-0.050833203
76	0x3e180684	0.14846236
77	0x3c14dada	0.009085381
78	0xbcddbd99	-0.027067946
79	0x3ceaad04	0.028646953
80	0xbd3293dc	-0.04359804
81	0xba9731b1	-0.0011535195
82	0xbb4181ef	-0.002952691
83	0x3d8b680b	0.06806954
84	0x3dadba28	0.08482772
85	0xbd5df2bc	-0.054186568
86	0xbd678bda	-0.056529857
87	0xbc730099	-0.014831685
88	0xbc367b9b	-0.011137868
89	0x3ce9bd34	0.028532602
90	0x3d22f6fc	0.039786324
91	0x3c13d92b	0.009023945
92	0x3c0622b9	0.008186989
93	0x3b049f8d	0.0020236701
94	0xbd2deb6f	-0.042460855
95	0xbe2dd788	-0.1697675
96	0x3d5250cc	0.051346585
97	0x3da02a46	0.07820563
98	0x3dcad4a3	0.099038385
99	0xbd68b2c4	-0.05681111
100	0xba61bcad	-0.0008611184
101	0x3d82cc44	0.06386617
102	0xbdd90110	-0.10595906
103	0xbca4fc54	-0.02013985
104	0x3d46f59b	0.04857407
105	0x3d7d7fd6	0.061889492
106	0x3d5f70e8	0.054551035
107	0xbd04c9ac	-0.03241889
108	0xbd8d1387	-0.0688849
109	0xbcafd3e8	-0.02146335
110	0xbd8f2d22	-0.0699103
111	0x3db410da	0.08792277
112	0x3ddf381e	0.108993754
113	0xbc8af688	-0.016963258
114	0x3cf635f4	0.030055024
115	0x3c457f1c	0.012054231
116	0x3dc10bbd	0.09426067
117	0xbd1df916	-0.038567625
118	0x3e2057a1	0.15658428
119	0x3d360637	0.04443952
120	0x3c04b36d	0.008099419
121	0xbcc9d64d	-0.02463832
122	0xbd594480	-0.053043842
123	0xbdcae66a	-0.09907229
124	0x3d90e07b	0.07074066
125	0xbcd56172	-0.026047442
126	0x3c467446	0.012112683
127	0xbc948ca0	-0.018133461
128	0xbdb3e064	-0.087830335
129	0x3d9579cf	0.07298624
130	0xbd7098e2	-0.05873955
131	0xbd1d77f2	-0.038444467
132	0x3cbd9e94	0.023146905
133	0x3c056027	0.0081406
134	0xbd78f346	-0.06077888
135	0x3cadb70d	0.02120545
136	0xbceb904f	-0.028755335
137	0x3e1055c3	0.14095215
138	0x3dbfa652	0.09357895
139	0xbd3178d1	-0.04332811
140	0xbdaa3e00	-0.08312607
141	0x3ca4460b	0.02005293
142	0xbd2fd029	-0.042923126
143	0x3e197060	0.14984274
144	0xbd827c40	-0.06371355
145	0xbc5ee23f	-0.013603746
146	0xbcaf01f4	-0.021363236
147	0xbcb8c344	-0.022554047
148	0xbd05d28b	-0.032671493
149	0x3dd36085	0.10321144
150	0x3d479b78	0.04873225
151	0xbd89e80e	-0.06733714
152	0x3c1138f6	0.008863678
153	0x3a34d999	0.00068988797
154	0xbd800642	-0.062511936
155	0xbbcf0778	-0.006318029
156	0xbc336d57	-0.010951362
157	0xbde8b2a3	-0.11362197
158	0xbcd241ce	-0.025666144
159	0xbd01e4dd	-0.0317124
160	0x3cb57a89	0.022153156
161	0xbd7eb498	-0.062183946
162	0xbda0e293	-0.078557156
163	0xbcd0247f	-0.025408028
164	0x3d981966	0.07426719
165	0xbbf48c55	-0.007463018
166	0x3cf8888a	0.030338544
167	0xbe0cac91	-0.13737704
168	0xbd8cdf05	-0.06878475
169	0x3d126221	0.035738114
170	0xb998d45c	-0.0002914992
171	0x3c28a604	0.010293487
172	0xbd823b00	-0.063589096
173	0x3d1c5153	0.038163494
174	0x3c80a5f8	0.01570414
175	0x3b5bbfa7	0.0033530982
176	0xbc18b98b	-0.009321581
177	0x3bed21d9	0.007236701
178	0x3c00e53a	0.007867152
179	0x3e0744df	0.13209866
180	0xbd0fefcc	-0.035140797
181	0xbcc768b7	-0.024341924
182	0xbc3fbf26	-0.011703288
183	0x3d30f295	0.043200094
184	0x3daa02af	0.08301293
185	0x3d477c2c	0.048702404
186	0x3d7a98bd	0.06118082
187	0xbd1d28a7	-0.038368847
188	0x3d136f50	0.035994828
189	0x3ca6c5c1	0.020357968
190	0xbd832ad6	-0.06404655
191	0xbd35c6eb	-0.044379156
192	0xbd12a952	-0.035806008
193	0x3bf6193e	0.0075103333
194	0xbcf99d6c	-0.030470572
195	0xbcc23010	-0.023704559
196	0xbc8e1c6e	-0.01734754
197	0x3c301429	0.010746994
198	0xbd5ed8db	-0.05440603
199	0x3d8f9452	0.07010712
200	0xba029fa7	-0.00049828965
201	0x3e313f3f	0.17309283
202	0x3cdfa2e5	0.027299354
203	0x3d140eb7	0.036146846
204	0xbd9b30e3	-0.07577684
205	0xbdc02c62	-0.09383465
206	0x3e29e106	0.16589746
207	0xbd52d793	-0.05147512
208	0xbd3cba81	-0.0460763
209	0xbc94fc83	-0.018186813
210	0x3dd67b43	0.10472729
211	0xbd8d1087	-0.06887918
212	0x3d86c038	0.065796316
213	0xbd5b0d97	-0.053479757
214	0x3d845962	0.06462361
215	0xbd5bc4dd	-0.05365454
216	0xba30670c	-0.00067292224
217	0x3a566faa	0.00081800914
218	0x3c35c15f	0.011093467
219	0xbc39cf8a	-0.011340985
220	0xbdc9ce54	-0.09853807
221	0x3d077cec	0.03307812
222	0xbd7af158	-0.06126532
223	0x3d95749d	0.07297633
224	0xbca61ce8	-0.020277455
225	0x3dfefbbb	0.124503575
226	0xbda27cf7	-0.079339914
227	0x3cb187b2	0.02167115
228	0x3d9d1eae	0.07671867
229	0x3dc06443	0.093941234
230	0x3dab6557	0.083689384
231	0xbe01f497	-0.1269096
232	0x3cd611b1	0.026131483
233	0xbd196e14	-0.037458494
234	0xbca80663	-0.020510858
235	0x3d2efb8f	0.042720374
236	0x3bf2d183	0.0074102296
237	0xbd9f16b4	-0.07768002
238	0x3d699cca	0.05703429
239	0xbcb54444	-0.022127278
240	0x3d95187b	0.0728006
241	0x3d3b894b	0.04578523
242	0xbd078c07	-0.033092525
243	0xbd65b7c6	-0.056083463
244	0x3d72d0b1	0.059281055
245	0x3d09540b	0.033527415
246	0x3d3fa2c2	0.046786077
247	0xbc4959cc	-0.012289476
248	0xbd54739b	-0.051868062
249	0x3c8fefdd	0.01757043
250	0x3c2a1ecb	0.010383318
251	0x3d9ff908	0.07811171
252	0x3d97a55a	0.07404585
253	0x3e80f56b	0.2518724
254	0x3cedd536	0.029032331
255	0x3cd55bc7	0.02604474

encoder.6.bias f4 [30]
0	0x3e249dbe	0.16075799
1	0xbd31cc60	-0.043407798
2	0x3e6f2f58	0.23357904
3	0x3d06af72	0.03288216
4	0x3b10f9cb	0.0022121544
5	0xbcb020bf	-0.02149999
6	0x3cb24ac7	0.021764172
7	0xbe86c188	-0.26319528
8	0xbdb479fc	-0.08812329
9	0xbdbf9dec	-0.09356293
10	0x3d85374f	0.0650469
11	0x3c89511b	0.016762307
12	0xbe0d5b86	-0.13804445
13	0xbe5d8f92	-0.21636799
14	0xbd23dbae	-0.040004425
15	0xbd187823	-0.037223946
16	0x3d97294e	0.07380925
17	0xbdcd3b22	-0.10021044
18	0x3d5b0d06	0.053479217
19	0x3dd122a9	0.10211689
20	0x3e09b6e1	0.13448669
21	0x3ce81e81	0.028334858
22	0xbd44c966	-0.04804363
23	0xbc92ea53	-0.017934
24	0x3de3376b	0.110945545
25	0xbda540ae	-0.08068977
26	0x3d7d3dee	0.06182664
27	0x3bbffdb2	0.0058591003
28	0xbd8e1299	-0.06937141
29	0x3e74c782	0.23904231

decoder.0.weight f4 [147, 30]
0	0x3e056d63	0.13030009
1	0xbd27cace	-0.040964894
2	0xbd897dac	-0.06713423
3	0x3e34e21d	0.1766438
4	0x3d0af220	0.033922315
5	0x3cb72d92	0.022360597
6	0xbd56ad29	-0.052411232
7	0xbd68a205	-0.05679514
8	0x3cd18b87	0.025579227
9	0xbe02fcf6	-0.1279181
10	0x3d50db59	0.050990436
11	0x3dbe0fc8	0.09280354
12	0x3da8a52d	0.0823463
13	0x3dc28151	0.094973214
14	0x3db1cb50	0.08681357
15	0x3d9628a3	0.073319696
16	0x3e2c3adc	0.16819328
17	0xbe2e0e5d	-0.16997667
18	0xbdf53510	-0.119730115
19	0xbc6bc2ab	-0.014389674
20	0xbc754b14	-0.014971513
21	0x3da3ad77	0.0799207
22	0xbe1acbd9	-0.15116824
23	0xbd985cff	-0.074396126
24	0xbe0422e8	-0.1290394
25	0xbd804d14	-0.062647015
26	0x3cb982a6	0.022645306
27	0xbda9d1ba	-0.08291955
28	0x3e45adc3	0.19304566
29	0x3b36b94d	0.0027881444
30	0x3df1f2f1	0.118139155
31	0x3de30430	0.11084783
32	0x3dffa078	0.12481779
33	0xbd43edbf	-0.047834154
34	0xbe4f1209	-0.20221724
35	0xbd6ee0ff	-0.05832004
36	0xbd78715e	-0.06065499
37	0x3e081588	0.13289464
38	0xbd82f956	-0.06395213
39	0x3cdf1a98	0.02723436
40	0xbe230afd	-0.1592216
41	0x3ad0cb43	0.0015929717
42	0xbe1f973c	-0.15585035
43	0x3da15f63	0.07879522
44	0xbe287855	-0.16452153
45	0xbc47a936	-0.012186339
46	0x3c08771a	0.008329177
47	0xbd9b59ee	-0.07585512
48	0x3d6e8b77	0.058238473
49	0xbc93b925	-0.01803262
50	0xbe1ac2a0	-0.15113306
51	0xbddb3a10	-0.10704434
52	0x3cb52c46	0.022115838
53	0x3d1f2bee	0.038860254
54	0xbd864fc0	-0.0655818
55	0xbd1672c9	-0.03673056
56	0x3d93e412	0.07221235
57	0xbd1e0eaf	-0.038588222
58	0xbc922337	-0.017839057
59	0x3df02ab0	0.11726892
60	0xbe2380b2	-0.15967062
61	0x3c4e7f5e	0.012603609
62	0x3defe3cb	0.1171337
63	0x3b07622b	0.0020657878
64	0x3cc604b4	0.024172164
65	0x3d77c85a	0.060493805
66	0xbdae463e	-0.085094914
67	0x3e86d3e3	0.26333532
68	0x3dac2b67	0.08406716
69	0xbe7d283d	-0.24722381
70	0xbdee17cf	-0.11625635
71	0x3e86504a	0.2623313
72	0x3dc053c3	0.09390976
73	0x3d8fcd16	0.07021539
74	0x3c1673a0	0.009182841
75	0x3ae14cc1	0.0017189012
76	0x3e6b5841	0.22982885
77	0x3e103d75	0.14085944
78	0xbda93c36	-0.082634374
79	0x3e416f20	0.18890047
80	0x3dac3338	0.08408207
81	0x3de40ea9	0.11135609
82	0xbd04ec25	-0.032451767
83	0x3d5a47bf	0.05329108
84	0xbd64b1b8	-0.05583355
85	0xbe31dfcc	-0.17370528
86	0x3d3d20b1	0.046173755
87	0xbd5ceec0	-0.053938627
88	0xbdbe4a52	-0.09291519
89	0x3e77193a	0.24130717
90	0x3d2f0a0f	0.042734202
91	0x3dd58163	0.10425069
92	0x3d144d96	0.036206804
93	0x3e4fb908	0.20285428
94	0xbdd8891e	-0.10573028
95	0x3d4959f6	0.04915806
96	0xbdcbb582	-0.09946729
97	0xbe026640	-0.12734318
98	0x3e074cbe	0.13212869
99	0xbddcd4f4	-0.10782805
100	0xbd545dd8	-0.05184731
101	0x3d47546b	0.04866449
102	0xbe2c9419	-0.1685337
103	0x3d749f64	0.05972232
104	0xbe1596a2	-0.14608243
105	0x3e01ba43	0.1266871
106	0xbd5ea8dc	-0.054360256
107	0xbd3f7b2e	-0.046748333
108	0xbe27f348	-0.16401398
109	0xbdf64ccf	-0.12026369
110	0xbe1894bb	-0.14900486
111	0x3c7e97c0	0.01553911
112	0xbd7f29c1	-0.06229568
113	0xbc335192	-0.010944741
114	0x3cf84ade	0.030309137
115	0x3e07e799	0.13271941
116	0xbd4dddaa	-0.050260223
117	0x3d432696	0.04764422
118	0x3d2baed8	0.04191479
119	0x3dd3eae3	0.103475355
120	0x3d443ee0	0.047911525
121	0xbdf08f9c	-0.11746141
122	0x3e265159	0.16241969
123	0x3d5c2501	0.053746227
124	0x3cc8a4bf	0.02449262
125	0x3e68bb39	0.2272767
126	0xbd9e6ff2	-0.077361956
127	0x3cf482cc	0.029847525
128	0xbdc3c777	-0.09559529
129	0x3e4914ac	0.19636792
130	0x3e4fa4f6	0.20277771
131	0xbd0c69fc	-0.034280762
132	0x3d46d67c	0.048544392
133	0x3c74bcdb	0.014937605
134	0x3d8b3344	0.067968875
135	0x3d6fb556	0.058522545
136	0x3e725cc7	0.23668204
137	0x3ce09cc0	0.027418494
138	0xbdcaef6e	-0.09908949
139	0x3c402df9	0.011729711
140	0x3e212009	0.15734877
141	0x3d8aef5e	0.06783937
142	0xbd8c950b	-0.06864365
143	0x3e1b7438	0.15181053
144	0xbe5a4017	-0.21313511
145	0xbc120274	-0.008911718
146	0x3e145c7c	0.14488405
147	0xbe011e56	-0.12609228
148	0xbd0a579d	-0.03377496
149	0x3a271efc	0.00063751615
150	0x3e0a9a91	0.13535525
151	0xbbcb8f3e	-0.006212144
152	0xbd5527a8	-0.052039772
153	0xbdf81f28	-0.121153176
154	0x3d14e774	0.036353543
155	0xbdf349f5	-0.118793406
156	0xbc90a588	-0.017657056
157	0xbdad6284	-0.08466056
158	0x3e09ed37	0.13469397
159	0x3d21c33b	0.039492827
160	0xbe2e7296	-0.17035899
161	0xbdc5030e	-0.09619723
162	0x3dc21abb	0.09477755
163	0xbd36c156	-0.044617973
164	0x3cdaab65	0.026693055
165	0xbd85c1d9	-0.06531114
166	0x3df4c6c7	0.11951976
167	0xbc93b01a	-0.018028308
168	0x3def6095	0.116883434
169	0xbd39dda8	-0.045377403
170	0x3d17bb3f	0.037043806
171	0xbd9c8c44	-0.07643941
172	0xbd4271cb	-0.047471803
173	0x3d39934c	0.04530649
174	0xbe1ab710	-0.15108895
175	0xbe33876e	-0.17532131
176	0xbd024aa6	-0.03180947
177	0x3d97c198	0.07409972
178	0x3c72f300	0.0148284435
179	0x3d90f452	0.070778504
180	0xbe354dde	-0.17705485
181	0x3e5db9de	0.21652934
182	0xbd1e3fc2	-0.038635023
183	0x3d332eb7	0.043745723
184	0x3ccfccc5	0.025366196
185	0x3da2ef5e	0.07955812
186	0xbecb42ba	-0.39699346
187	0xbb298360	-0.002586566
188	0x3e4175bd	0.1889257
189	0x3c651020	0.013980895
190	0xbe51d391	-0.20490862
191	0x3cb9c8bd	0.022678727
192	0x3e0402b0	0.1289165
193	0xbd71b194	-0.059007242
194	0x3d6701b7	0.05639812
195	0xbda0d5b9	-0.07853264
196	0xbd2475c2	-0.040151365
197	0x3e23a8ec	0.15982407
198	0xbcfddbf6	-0.030988675
199	0x3e19e636	0.15029225
200	0x3d5bf2b0	0.05369824
201	0xbdf23391	-0.11826242
202	0x3c7e054a	0.015504191
203	0xbd628fe5	-0.05531301
204	0xbd3b1c56	-0.04568132
205	0x3d56acc7	0.052410867
206	0xbd4da95e	-0.05021035
207	0xbe2c3b82	-0.16819575
208	0x3c414445	0.011796062
209	0xbce827a4	-0.028339215
210	0xbda65910	-0.08122456
211	0xbd4f93f3	-0.050678205
212	0xbb7b6b23	-0.003836342
213	0x3e0d57bf	0.13803004
214	0x3bf02d95	0.0073296526
215	0xbe0cda87	-0.13755237
216	0xbdb3aa4c	-0.08772716
217	0x3d608214	0.054811552
218	0x3c3b3696	0.0114265885
219	0xbe205c27	-0.15660153
220	0xbe4398a9	-0.19101204
221	0xbe23b52f	-0.15987085
222	0x3d8ca988	0.06868273
223	0xbdabec43	-0.08394673
224	0x3c8105c8	0.015749827
225	0x3d3f4298	0.046694368
226	0x3b86dee1	0.0041159247
227	0xbdd75e48	-0.105160296
228	0x3c738255	0.014862617
229	0xbdc8ffe7	-0.098144345
230	0x3d7178de	0.05895316
231	0x3db44c48	0.08803612
232	0x3d6821fb	0.05667303
233	0x3d083fff	0.033264156
234	0xbad2fed4	-0.0016097673
235	0x3d920909	0.071306296
236	0x3d678d8f	0.056531485
237	0x3d033a69	0.032038126
238	0x3e135573	0.14388065
239	0xbda39b79	-0.079886384
240	0xbd973ecc	-0.073850244
241	0xbe18b03b	-0.14910977
242	0xbc9965e0	-0.018725336
243	0x3c1ffa73	0.009764302
244	0x3e50b192	0.20380238
245	0x3d213b30	0.039363086
246	0x3e609172	0.21930483
247	0xbe03dfbd	-0.12878318
248	0x3d9caf5b	0.07650634
249	0x3dd03bac	0.101676315
250	0xbe429769	-0.19003071
251	0x3c288615	0.010285874
252	0xbd02f3dd	-0.031970847
253	0x3e052aa9	0.13004555
254	0xbe110d1c	-0.14165157
255	0x3db4320a	0.08798607

decoder.0.bias f4 [147]
0	0x3db90137	0.09033435
1	0xbcc32bb0	-0.023824543
2	0xbe9b51c0	-0.30335808
3	0x3d39f548	0.045399934
4	0xbd06c295	-0.03290041
5	0x3c435ae9	0.01192353
6	0xbde415c9	-0.11136968
7	0xbd70a092	-0.05874688
8	0x3d6875be	0.056752913
9	0xbde9dfad	-0.11419616
10	0x3dc4541f	0.09586357
11	0x3cf21574	0.029551245
12	0xbd337776	-0.0438151
13	0x3dd7660d	0.105175115
14	0xbe8782cf	-0.26466987
15	0xbcfe333d	-0.031030292
16	0xbe1888c6	-0.14895925
17	0x3cd6974f	0.026195196
18	0xbdad69fc	-0.084674805
19	0xbc5fdb4c	-0.013663124
20	0x3df7c8ee	0.12098871
21	0x3d9f464c	0.0777708
22	0xbe25df24	-0.16198403
23	0x3d78a450	0.060703576
24	0xbd06fd1a	-0.03295622
25	0x3ccd6589	0.02507283
26	0x3d61ddc3	0.05514313
27	0x3c1fe21b	0.009758498
28	0x3d73a64e	0.059484772
29	0xbe0b712c	-0.1361739
30	0x3db3cde6	0.087795064
31	0xbe2ccce6	-0.16875038
32	0xbe043541	-0.1291094
33	0xbd3e0eb9	-0.04640076
34	0x3e387e4a	0.18016925
35	0x3ccd681d	0.02507406
36	0x3d2f3436	0.0427744
37	0x3cb7b2e8	0.022424176
38	0xbe9ae32a	-0.30251437
39	0xbd5405eb	-0.051763456
40	0xbd9241e3	-0.07141473
41	0xbdc1a433	-0.09455147
42	0x3e19fd58	0.15038049
43	0x3e1740d8	0.1477083
44	0xbd0bccc8	-0.03413084
45	0x3df6468c	0.120251745
46	0xbc905165	-0.017616937
47	0x3dc35285	0.09537224
48	0xbe43905f	-0.19098042
49	0xbd9272da	-0.071508124
50	0x3e4b9c04	0.19883734
51	0xbc979909	-0.01850559
52	0xbd282276	-0.04104849
53	0x3d334fcc	0.043777272
54	0xbc12eeaa	-0.008968035
55	0x3d962fb7	0.0733332
56	0x3da57b0f	0.08080112
57	0xbb8e7366	-0.0043472527
58	0x3e214e07	0.15752421
59	0xbc114dc9	-0.008868643
60	0xbdd8dace	-0.10588609
61	0xbcb868f0	-0.022510976
62	0xbce7170a	-0.028209228
63	0x3d5e1e69	0.05422822
64	0x3e0d4c68	0.13798678
65	0xbc580bf4	-0.013186444
66	0x3bee6531	0.0072752465
67	0xbd32105f	-0.043472644
68	0xbda40046	-0.08007865
69	0xbcf8896a	-0.030338962
70	0x3d7667da	0.060157634
71	0xbc89a21b	-0.01680093
72	0xbc312b0c	-0.010813486
73	0x3d0ad550	0.033894837
74	0x3e28e722	0.1649442
75	0x3e112f30	0.14178157
76	0xbd96bf71	-0.07360733
77	0x3cc9fb11	0.02465585
78	0xbe8594c2	-0.26090056
79	0x3cd50e6c	0.026007853
80	0x3d7d64c8	0.06186369
81	0xbd815f8c	-0.06317052
82	0x3d1e8d6e	0.038709097
83	0x3cadae78	0.021201357
84	0x3c279599	0.010228538
85	0xbe829608	-0.2550509
86	0x3d454619	0.048162553
87	0x3d6b7f38	0.057494372
88	0xbdb6b37f	-0.08920955
89	0xbd15b5b6	-0.036550246
90	0xbdb01d3c	-0.08599326
91	0xbda57e23	-0.08080699
92	0x3d5f4758	0.054511398
93	0xbd040dbd	-0.032239664
94	0x3db63d6d	0.08898435
95	0xbe9fbeda	-0.31200296
96	0x3e0b8b00	0.13627243
97	0xbe7fc9f6	-0.24979386
98	0xbe094c80	-0.13408089
99	0x3d8adbd2	0.06780209
100	0x3c7049b4	0.01466601
101	0xbe8df18c	-0.27723348
102	0xbea32372	-0.3186298
103	0xbc52ccd8	-0.012866221
104	0xbd940927	-0.07228308
105	0xbe8ce907	-0.27521536
106	0x3dd757e5	0.105148114
107	0x3e05b287	0.13056384
108	0xbccb6594	-0.02482871
109	0x3ccdf74b	0.025142333
110	0x3d66f122	0.056382306
111	0xbddd4796	-0.108046696
112	0x3d95f11e	0.0732138
113	0x3bc66959	0.006055039
114	0xbce9b121	-0.028526844
115	0xbeb03ee6	-0.34422988
116	0x3e6c0919	0.23050345
117	0x3dc683c2	0.096930996
118	0xbe09cd9c	-0.1345734
119	0xbe211aaf	-0.15732835
120	0xbdb6f857	-0.08934086
121	0x3d036288	0.03207639
122	0x3cc9558e	0.024576928
123	0xbe5a7ba6	-0.2133623
124	0x3e3173f1	0.17329384
125	0xbd1d6a08	-0.038431197
126	0xbe409a3b	-0.18808834
127	0xbe005577	-0.12532602
128	0x3d9a9d2f	0.07549512
129	0x3c7a4874	0.015276063
130	0x3e42e603	0.19033055
131	0x3c8335f8	0.016016945
132	0x3da149a0	0.07875371
133	0xbde09a65	-0.109669484
134	0xbd858028	-0.065185845
135	0x3d9620ae	0.07330452
136	0xbd129148	-0.035783082
137	0x3d51dde8	0.051237017
138	0xbe70568c	-0.23470515
139	0xbee818af	-0.45331332
140	0xbd763ea9	-0.06011835
141	0x3c9799d4	0.018505968
142	0x3d02895b	0.031869274
143	0xbda906e9	-0.08253271
144	0xbf6f8f9d	-0.9357851
145	0x3cd6454e	0.026156094
146	0xbe735fe1	-0.23767044

decoder.3.weight f4 [147, 147]
0	0x3cf0d8fe	0.029400345
1	0xbd898c39	-0.067161985
2	0xbe8679c2	-0.2626477
3	0x3c83b91b	0.016079476
4	0xbd7e908b	-0.062149566
5	0x3cfd8ff0	0.030952424
6	0xbe36d10f	-0.17853187
7	0x3d28fcde	0.041256778
8	0xbeab4ae3	-0.33455572
9	0xbe6075bc	-0.21919912
10	0x3c970cc5	0.018438706
11	0xbe0c9163	-0.13727336
12	0xbd88fe72	-0.066891566
13	0xbd4c964a	-0.049948014
14	0xbe7b6155	-0.24548848
15	0xba587e4d	-0.00082585664
16	0xbe893885	-0.26800933
17	0xbdc8d900	-0.098070145
18	0x3d614e08	0.055006057
19	0x3bc2e07e	0.0059471717
20	0x3ca23989	0.019802826
21	0xbceed25d	-0.029153043
22	0xbe0e6616	-0.1390613
23	0xbbb1c0a7	-0.0054245773
24	0xbd75a7d2	-0.0599745
25	0x3c962057	0.018325968
26	0xbe07b04e	-0.13250849
27	0xbdeaa725	-0.114576615
28	0xbdc3b69c	-0.09556314
29	0xbd0c97c1	-0.03432441
30	0xbcd8a2e4	-0.02644486
31	0xbd19115d	-0.037370075
32	0xbe3c7244	-0.18402964
33	0x3bb48614	0.0055091474
34	0x3d797335	0.060900886
35	0x3bdaf2b1	0.006681763
36	0xbc112c19	-0.008860611
37	0xbe5d3020	-0.2160039
38	0x3e002f55	0.12518056
39	0xbd8b749b	-0.0680935
40	0xbe1d2ae6	-0.15348396
41	0xbd2f2225	-0.042757172
42	0xbc87510d	-0.01651814
43	0xbdb3ccee	-0.087793216
44	0x3c32b625	0.010907684
45	0x3cc4b328	0.02401121
46	0xbe0009d1	-0.12503745
47	0xbc67bb3f	-0.014143764
48	0x3e5d664b	0.21621053
49	0xbcc3ecc3	-0.023916608
50	0xbb656c9a	-0.0035007359
51	0x3cadcba5	0.02121527
52	0x3d8dcdff	0.06924056
53	0xbe5b3479	-0.21406735
54	0xbc9d171f	-0.019176064
55	0x3d4814c9	0.048847947
56	0x3c6e32b8	0.0145384595
57	0x3cb8f816	0.022579234
58	0x3d0ae03e	0.03390526
59	0x3e5984da	0.21242085
60	0x3d7b9c04	0.061428085
61	0x3d8e2a6c	0.06941685
62	0xbe923dd5	-0.285628
63	0x3cec090f	0.028812913
64	0x3dccda1a	0.10002537
65	0xbe236537	-0.15956579
66	0x3a704a5a	0.00091663527
67	0xbbbca7a1	-0.0057572876
68	0xbdbc7077	-0.092011385
69	0x3d2971dc	0.04136835
70	0xbdfeea41	-0.12447024
71	0xbdc3016f	-0.09521758
72	0x3c13e98c	0.00902785
73	0xbcf91dbe	-0.03040969
74	0xbcc96867	-0.024585916
75	0xbbb6e581	-0.005581558
76	0x3be4252c	0.006962439
77	0xbd137617	-0.03600129
78	0x3e2a09ac	0.16605252
79	0xba9a4af0	-0.0011771601
80	0xbe8aae88	-0.27086282
81	0x3ca907a7	0.020633532
82	0x3c10f2c1	0.00884694
83	0xbe09ead8	-0.13468492
84	0xbcb64973	-0.02225182
85	0xbdd77d40	-0.105219364
86	0xbca1a09a	-0.019729901
87	0xbe06b0a3	-0.13153319
88	0xbd8af845	-0.06785635
89	0x3cef2714	0.029193439
90	0xbebca569	-0.36844948
91	0x3ca55223	0.020180767
92	0xbdc7d9d4	-0.09758344
93	0x3dc8f4a9	0.0981229
94	0xbcde5222	-0.027138773
95	0xbd9437e1	-0.072372206
96	0xbc8054bd	-0.015665406
97	0xbd57df53	-0.052703213
98	0x3c1f6f8b	0.009731184
99	0x3d659f6f	0.05606025
100	0xbcace043	-0.02110303
101	0x3c9d588c	0.019207262
102	0x3db62f9f	0.08895802
103	0x3d0ecc0b	0.03486256
104	0x3e371d15	0.17882188
105	0x3dad409c	0.08459589
106	0xbd610629	-0.054937515
107	0xbc232019	-0.009956383
108	0x3d1e353d	0.03862499
109	0x3dab6ecf	0.083707444
110	0x3ddee8b3	0.108842276
111	0x3d040ba5	0.032237668
112	0xbe266ec9	-0.16253199
113	0x3c92cac3	0.01791895
114	0xbc4f61e7	-0.012657619
115	0x3c55b520	0.013043672
116	0x3c571dcf	0.0131296655
117	0x3bd39407	0.006456855
118	0xbd7cda77	-0.06173178
119	0xbe3a34db	-0.18184225
120	0x3b9782ba	0.004623738
121	0xbe5b0888	-0.21389973
122	0x3baa201b	0.0051918156
123	0xbb92bf8c	-0.0044784006
124	0x3cb86340	0.022508264
125	0xbd105b92	-0.03524358
126	0xbd533d24	-0.05157198
127	0x3db54286	0.08850579
128	0xbd7a82b3	-0.0611598
129	0xbe8e057c	-0.2773856
130	0xbe3da1ca	-0.18518749
131	0xbd7f94fb	-0.06239794
132	0x3e212900	0.15738297
133	0x3ca924fb	0.020647516
134	0x3c7699e9	0.0150513435
135	0xbd1d42fe	-0.038393967
136	0xbd4502cc	-0.04809837
137	0xbe41f8ac	-0.18942517
138	0x3e501c3a	0.20323268
139	0xbbd2985c	-0.006426854
140	0xbc115ca8	-0.008872189
141	0xbc455eac	-0.012046497
142	0xbe71c82c	-0.23611516
143	0x3c762b65	0.0150249945
144	0xbcfe972f	-0.03107795
145	0x3cd6914a	0.026192326
146	0x3db4c217	0.08826082
147	0xbd487a50	-0.04894477
148	0x3cb553a3	0.022134608
149	0xbd2c25cd	-0.042028237
150	0xbdcad2b9	-0.099034734
151	0x3d37c26e	0.044863157
152	0x3d045d01	0.032315258
153	0xbd10b9de	-0.035333507
154	0xbc490191	-0.01226844
155	0x3da694ee	0.08133875
156	0xbec5ab4b	-0.3860725
157	0xbd0c26e5	-0.03421678
158	0xbd8741a7	-0.06604319
159	0xbc642137	-0.013923935
160	0xbe3d543a	-0.18489161
161	0xbcbaa936	-0.022785764
162	0xbbfc2f99	-0.007696104
163	0x3bd9626d	0.0066340477
164	0x3d73749e	0.059437387
165	0xbbfdfc4d	-0.007751024
166	0xbbde015c	-0.0067750644
167	0xbdb22173	-0.08697786
168	0xbd24c703	-0.040228855
169	0xbe9326ef	-0.2874064
170	0xbd79cb30	-0.06098479
171	0xbeac795f	-0.3368635
172	0xbd919e6e	-0.07110296
173	0xbdb8e02f	-0.090271346
174	0x3e132617	0.14369999
175	0x3df7dcd6	0.12102668
176	0xbd68cf21	-0.05683816
177	0xbe2054cc	-0.15657347
178	0xbc2ff79a	-0.010740185
179	0x3d851504	0.06498149
180	0xbc21adde	-0.009868113
181	0xbd6d373d	-0.057914007
182	0xbd36798c	-0.04454951
183	0x3ca34a4d	0.01993289
184	0x3dc81665	0.097698964
185	0xbe1bbdc1	-0.15209104
186	0x3ca74eeb	0.020423373
187	0x3e16981d	0.14706464
188	0xbd6a01e2	-0.0571307
189	0xbe8b07de	-0.2715444
190	0x3e88293d	0.26593962
191	0xbd41ee88	-0.04734662
192	0xbd4aaa39	-0.049478743
193	0x3d060b74	0.032725766
194	0xbd905b67	-0.070486836
195	0x3c393090	0.011303082
196	0x3cb2aff7	0.021812422
197	0x3dff498e	0.12465201
198	0xbd503949	-0.05083588
199	0xbc6641d2	-0.014053779
200	0xbd9e4d58	-0.07729596
201	0x3d3fa24b	0.046785634
202	0xbd8c8300	-0.06860924
203	0x3d343897	0.04399928
204	0xbd47d42d	-0.04878633
205	0xbe21a17d	-0.15784259
206	0x3d34862a	0.04407326
207	0x3d9714be	0.07377003
208	0x3c85edb5	0.0163487
209	0xbe809643	-0.2511464
210	0x3cd5d320	0.026101649
211	0xbc86d09e	-0.016456898
212	0xbe04891e	-0.12942931
213	0x3d1a79d9	0.03771386
214	0x3d371159	0.04469428
215	0xbdbad6c5	-0.09122995
216	0x3c58af14	0.013225336
217	0xbe3927de	-0.18081614
218	0x3a81f3f0	0.0009914618
219	0xbd37e16a	-0.044892706
220	0x3cf92d34	0.030417062
221	0x3c62159e	0.013799099
222	0x3de6acb0	0.11263406
223	0x3d003831	0.03130359
224	0xbe80ab07	-0.25130484
225	0x3bc3442b	0.005959054
226	0xbebb8b0e	-0.36629528
227	0xbe0880b8	-0.13330352
228	0xbcc529f7	-0.024067862
229	0xbd272a00	-0.04081154
230	0xbdb3c7b0	-0.08778322
231	0xbda8ca74	-0.0824174
232	0x3d37af23	0.044844758
233	0x3d74d22a	0.05977074
234	0xbdbd027d	-0.0922899
235	0xbede8f87	-0.43468878
236	0xbd995d1f	-0.074884646
237	0xbd446f64	-0.047957793
238	0x3d2b6733	0.041846465
239	0xbe3aa0dc	-0.18225425
240	0x3d06ba8b	0.032892745
241	0x3d08ba4c	0.03338079
242	0xbb1c4094	-0.0023842202
243	0xbc61ba20	-0.013777286
244	0x3c034d62	0.008014055
245	0xbbee4c3e	-0.0072722724
246	0xbd9c683c	-0.07637069
247	0xbc744161	-0.014908166
248	0xbd78c126	-0.060731076
249	0xbc3e4a2a	-0.011614362
250	0xbccdbc34	-0.025114156
251	0x3d8d801c	0.069092005
252	0xbde6eb5c	-0.1127536
253	0x3d39cbe1	0.04536045
254	0x3d270d8b	0.0407844
255	0xbe1c2253	-0.15247469
