models/v1/nn/single-pred.pth (torch, 864368 bytes, 6 tensors)

layers.0.weight f4 [128, 1534]
0.0019411384 -0.018509794 -0.010190342 -0.016865248 0.04902907 -0.022180937 0.012899293 0.020434352
0.03288127 -0.023548452 -0.023107337 0.04186052 0.058127515 0.02595004 0.0067636794 0.021516915
-0.0032355308 0.025263462 0.04493057 -0.018319394 0.02171523 0.07185974 -0.026523188 -0.0026601332
0.03078686 -0.009446632 -0.021123832 0.06412925 -0.021306194 -0.036155403 0.012565561 -0.0034530743
0.0021115348 -0.044907473 0.026371676 -0.0090044085 0.026628846 0.012770233 0.04566677 0.03112748
-0.006722019 -0.009871226 0.012342227 -0.029511588 0.0025355355 -0.0043062596 -0.024318637 0.014188753
-0.014867893 0.018754793 0.01190179 0.010045729 0.04051688 0.016652543 -0.07711964 -0.018067572
0.03186221 0.030570855 -0.020295598 -0.016374383 0.014328472 0.019036068 -0.0102072125 0.0017348973
-0.035499755 0.047053326 -0.010501933 0.0053419136 0.017295698 0.020235218 0.03400911 0.019772256
0.016001936 0.004539585 -0.015642412 -0.0010448936 0.024634913 -0.01701765 -0.0050935703 -0.0071896478
0.008675618 -0.028948799 -0.0050327964 -0.026384369 -0.015860068 0.011867221 -0.017381895 -0.0106152445
-0.020323876 0.023400957 0.015490373 0.002140323 0.014245967 0.014656876 0.023747876 -0.002425753
-0.022859223 -0.0068622273 0.022317786 0.030570628 0.016476842 -0.013490038 -0.0056260447 0.0027901311
-0.017863195 0.00691764 0.009074296 -0.027297508 0.017838797 0.024960507 0.0040999823 -0.000341929
0.008075832 -0.015225922 -0.021253109 0.038629778 -0.024474258 -0.03934285 -0.004038409 0.032063317
-0.018994633 0.008777604 -0.0016613323 0.017340029 0.0013229094 0.041655313 -0.016462395 -0.03430568
0.033808935 -0.005427011 0.023252912 0.0076553756 -0.011998963 0.0012153261 0.002333242 -0.020215005
0.026547823 -0.0070652165 -0.049325384 0.0069152196 -0.021252217 -0.0030721999 -0.015445751 0.008876227
0.10122968 0.025137855 -0.019982647 -0.022465905 0.008653846 -0.012003395 0.013084111 -0.038360972
0.0044420892 0.028155038 -0.0033284707 0.063683435 -0.047071286 -0.019381242 -0.0322774 0.006616224
-0.0058723195 -0.025821527 0.0359395 0.034587037 -0.051674515 -0.0116626425 -0.012129553 0.020000817
0.0009503704 0.006439188 0.022874119 -0.0064140856 -0.0011577755 0.00704114 -0.05866546 0.020684615
-0.0021841023 -0.00058955286 0.013182063 -0.03462825 0.037886914 -0.013953198 0.0588817 -0.0099565815
0.012097964 0.028101893 -0.012168315 0.018192418 0.03179753 0.03157508 0.0150891505 -0.049884215
-0.050731055 0.0067764916 0.018769335 -0.010247459 0.0012709203 -0.013385106 0.022398194 0.0048047435
-0.0051739695 0.00524887 -0.04706886 0.03874156 0.04019295 0.009206379 0.01920895 -0.012239665
0.0049076267 0.0057677417 0.018036477 -0.013291377 0.011544625 -0.006330988 -0.0052865576 0.013099188
-0.012637641 -0.02410128 -0.0067770854 -0.009335764 0.031213002 0.03984717 -0.0005935182 0.01741859
-0.01816119 -0.000593726 0.0074493173 0.0060172267 -0.020644527 -0.0064009274 -0.019303627 -0.04397539
0.0010682258 0.024465995 0.012624082 -0.031854726 -0.0036377753 -0.025075834 0.00916727 0.0420668
0.025566803 -0.029693486 -0.0030648638 0.030554704 -0.03402724 -0.011207437 -0.021898394 0.04983076
0.06085493 0.026287649 -0.025065389 -0.010618603 -0.01944374 -0.008217888 -0.009270613 0.023923753
00000000: cc6d fe3a daa1 97bc 64f5 26bc fd28 8abc
00000010: b5d2 483d ccb4 b5bc 8e57 533c f165 a73c
00000020: 83ae 063d afe8 c0bc 994b bdbc f075 2b3d
00000030: 1e17 6e3d 2e95 d43c dba1 dd3b 3e44 b03c
00000040: 330b 54bb 52f5 ce3c 1e09 383d 8e12 96bc
00000050: 23e4 b13c 332b 933d 2847 d9bc a155 2ebb
00000060: ba34 fc3c 0cc6 1abc e30b adbc 3256 833d
00000070: 548a aebc b017 14bd c8df 4d3c f94c 62bb
00000080: ad61 0a3b e6f0 37bd 6a09 d83c 3a87 13bc
00000090: bd24 da3c 3d3a 513c 140d 3b3d 0fff fe3c
000000a0: 6244 dcbb ecba 21bc 0d37 4a3c 49c2 f1bc
000000b0: 3a2b 263b 861b 8dbb e137 c7bc f277 683c
000000c0: 7798 73bc a7a3 993c baff 423c d796 243c
000000d0: 07f5 253d ea6a 883c e7f0 9dbd 7202 94bc
000000e0: f381 023d bb6f fa3c f442 a6bc 9223 86bc
000000f0: f8c1 6a3c 87f1 9b3c 273c 27bc 7e65 e33a
00000100: 3168 11bd fdba 403d 4d10 2cbc 380b af3b
00000110: b5af 8d3c 54c4 a53c 234d 0b3d 6df9 a13c
00000120: 7e16 833c cdc0 943b 8424 80bc d0f4 88ba
00000130: 28cf c93c 9968 8bbc f7e7 a6bb 2397 ebbb
00000140: 2e24 0e3c 0826 edbc 28ea a4bb 0824 d8bc
00000150: f9ec 81bc bc6e 423c 7a64 8ebc 90eb 2dbc
00000160: 427e a6bc 5db3 bf3c 55cb 7d3c a944 0c3b
00000170: eb67 693c 6523 703c e88a c23c 62f9 1ebb
00000180: 4443 bbbc 89dc e0bb cad3 b63c 416f fa3c
00000190: 71fa 863c 5205 5dbc af5a b8bb a2da 363b
000001a0: d655 92bc 5fad e23b 5bac 143c 069f dfbc
000001b0: ab22 923c fa79 cc3c 2559 863b ef44 b3b9
000001c0: 7f50 043c 2576 79bc 001b aebc 423a 1e3d
000001d0: 3d7e c8bc f825 21bd a154 84bb d354 033d
000001e0: a29a 9bbc f1cf 0f3c 10c1 d9ba ad0c 8e3c
000001f0: 7965 ad3a c39e 2a3d 25dc 86bc 1d84 0cbd
00000200: 3d7b 0a3d 11d5 b1bb e47c be3c f2d9 fa3b
00000210: 4c97 44bc 944b 9f3a 4ee9 183b f099 a5bc
00000220: d27a d93c 5583 e7bb 6a09 4abd 1199 e23b
00000230: 2119 aebc f656 49bb 2d10 7dbc 986d 113c
00000240: 8251 cf3d e7ed cd3c a6b2 a3bc 6b0a b8bc
00000250: dcc8 0d3c e3a9 44bc bd5e 563c 6520 1dbd
00000260: f28e 913b 65a5 e63c 7922 5abb 766c 823d
00000270: d2cd 40bd 69c5 9ebc 4f35 04bd e9cc d83b
00000280: 966c c0bb ab87 d3bc 4c35 133d 23ab 0d3d
00000290: a8a8 53bd ab14 3fbc 08bb 46bc c1d8 a33c
000002a0: 4722 793a d3ff d23b 8162 bb3c 402d d2bb
000002b0: 80c0 97ba 5db9 e63b 324b 70bd c872 a93c
000002c0: 2823 0fbb 398c 1aba 94f9 573c 5ad6 0dbd
000002d0: 4f2f 1b3d f49b 64bc f02d 713d ee20 23bc
000002e0: 8a36 463c f135 e63c 9d5d 47bc 4408 953c
000002f0: 203e 023d df54 013d 7c38 773c 6453 4cbd
00000300: 5ecb 4fbd 550d de3b 26c2 993c f5e4 27bc
00000310: 0295 a63a 344d 5bbc 6b7c b73c 1c71 9d3b
00000320: 678a a9bb b6fe ab3b 47cb 40bd 78af 1e3d
00000330: 5da1 243d 5ad6 163c 175c 9d3c e088 48bc
00000340: 28d0 a03b 53ff bc3b 3cc1 933c 13c4 59bc
00000350: ab25 3d3c 2d74 cfbb dc3a adbb fa9d 563c
00000360: 1c0e 4fbc 0c70 c5bc 5012 debb 08f5 18bc
00000370: 69b2 ff3c c936 233d 5596 1bba 6eb1 8e3c
00000380: c7c6 94bc 47a4 1bba 6719 f43b 282c c53b
00000390: b61e a9bc dfbe d1bb a422 9ebc 8a1f 34bd
000003a0: b603 8c3a e96c c83c 3dd5 4e3c 1a7a 02bd
000003b0: be67 6ebb d66b cdbc 5132 163c 3d4e 2c3d
000003c0: 7971 d13c c13f f3bc e2db 48bb dc4d fa3c
000003d0: 2660 0bbd 669f 37bc 4364 b3bc 571b 4c3d
000003e0: 0543 793d 3259 d73c ee55 cdbc a6f9 2dbc
000003f0: 7a48 9fbc 52a4 06bc c5e3 17bc bffb c33c

layers.0.bias f4 [128]
0.023094123 -0.013357621 0.016467549 -0.02857103 0.023907289 0.020091884 -0.00052263006 0.026495835
-0.016311087 -0.0028156242 -0.0031771034 -0.009131576 0.0071881064 0.0066944025 -0.019061975 0.0011456609
-0.022305932 -0.004462664 -0.0036898903 0.0015309544 -0.018098524 0.010052888 -0.014716758 0.011022689
0.020085845 -0.008017385 -0.0009636127 0.0033119128 -0.0067329146 -0.012989204 0.0066581173 -0.0014047641
0.011701941 -0.02157941 0.011423224 0.01792273 -0.009593432 0.00595866 -0.018913101 0.0036988682
0.007143889 0.016155425 0.01960936 0.0028393338 0.011259999 0.010244505 -0.02914524 0.009022844
-0.011768181 0.0018939065 0.01644767 0.0075696637 -0.00837432 0.006739224 0.01520039 0.013173073
-0.015369384 -0.025290955 -0.011632879 -0.0007937319 0.02032294 0.01957438 0.0033427132 -0.011576018
-0.017760754 -0.012778008 -0.021259235 0.016660048 0.008921591 0.0050125387 0.0039590304 -0.022045922
-0.007063544 -0.010442889 0.006190591 -0.02763877 -0.02367735 -0.019156288 -0.013365893 -0.019987497
-0.0052835317 -0.012069437 0.022246234 -0.001998594 -0.018410122 -0.00849079 -0.023648206 -0.008080758
-0.0052586826 -0.028523901 0.015539219 0.009814547 0.025925113 0.016119182 0.006673862 0.028286712
-0.029991195 -0.00032728285 0.020988837 -0.0077004014 -0.019316815 -0.021207586 0.007999274 -0.015862778
-0.019442176 -0.015834112 0.0044215056 -0.02136287 -0.006946901 0.025676638 -0.018852852 -0.004450076
-0.0070091304 -0.016178781 0.017284725 -0.020636164 0.023512768 -0.021100847 -0.0036825426 -0.00851721
-0.021995844 0.01757606 0.022326026 -0.0013112614 -0.009569076 0.01590139 -0.0012786362 0.022457078
00000000: e32f bd3c ecd9 5abc f4e6 863c cb0d eabc
00000010: 38d9 c33c bc97 a43c 1c01 09ba cb0d d93c
00000020: d49e 85bc 5686 38bb f336 50bb 9b9c 15bc
00000030: 358a eb3b b85c db3b dc27 9cbc 002a 963a
00000040: eeba b6bc 8a3b 92bb 16d2 71bb 4eaa c83a
00000050: 5b43 94bc deb4 243c 8f1e 71bc 8298 343c
00000060: 128b a43c 5a5b 03bc f49a 7cba ad0c 593b
00000070: c89f dcbb acd0 54bc 562c da3b 1020 b8ba
00000080: 7fb9 3f3c 4ec7 b0bc 7928 3b3c b0d2 923c
00000090: c52d 1dbc dd40 c33b a6ef 9abc b668 723b
000000a0: 4917 ea3b 6258 843c cfa3 a03c 1e14 3a3b
000000b0: dc7b 383c 91d8 273c 00c2 eebc 8dd4 133c
000000c0: 54cf 40bc f53c f83a 44bd 863c f10a f83b
000000d0: 7234 09bc b5d4 dc3b 0e0b 793c dfd3 573c
000000e0: decf 7bbc fa2e cfbc d597 3ebc 7212 50ba
000000f0: 4b7c a63c 735a a03c 6c11 5b3b 57a9 3dbc
00000100: 007f 91bc da5a 51bc d927 aebc a77a 883c
00000110: dd2b 123c 3940 a43b c1ba 813b a699 b4bc
00000120: 4d75 e7bb a718 2bbc 71da ca3b b46a e2bc
00000130: 00f7 c1bc a6ed 9cbc 9efc 5abc d2bc a3bc
00000140: 7a21 adbb e3be 45bc bc3d b63c d8fa 02bb
00000150: d3d0 96bc f41c 0bbc e2b9 c1bc 2865 04bc
00000160: 0751 acbb f5aa e9bc 3598 7e3c 32cd 203c
00000170: e760 d43c 600c 843c 6ab0 da3b 89b9 e73c
00000180: 18b0 f5bc 2997 abb9 c8f0 ab3c a653 fcbb
00000190: 4c3e 9ebc 88bb adbc 630f 033c a8f2 81bc
000001a0: 3345 9fbc 8ab6 81bc 47e2 903b 2f01 afbc
000001b0: d4a2 e3bb d057 d23c 4c71 9abc f1d1 91bb
000001c0: d9ac e5bb 5d89 84bc b298 8d3c 2c0d a9bc
000001d0: d99d c03c afdb acbc d056 71bb c58b 0bbc
000001e0: a130 b4bc abfb 8f3c 12e5 b63c a2de abba
000001f0: 9dc7 1cbc a243 823c e997 a7ba e8f7 b73c

layers.1.weight f4 [128, 128]
0.038612466 -0.07329982 -0.014223192 0.027084535 -0.05333627 0.0037021497 0.11900516 0.0043943436
-0.10612269 -0.024974573 0.066764474 -0.012800535 0.09871439 -0.020858392 0.04479039 -0.046889685
0.14906374 -0.07140286 -0.03926153 0.12556234 -0.08621242 0.10187329 -0.06177179 0.10975379
0.01517352 -0.02348868 0.008572553 0.008192493 -0.09331095 -0.061203904 -0.09259074 -0.18407094
0.019381804 0.086943224 -0.10076123 0.1583285 0.042809404 -0.12746383 -0.004968612 -0.056354582
0.056519784 0.11804167 -0.05514967 0.13742289 -0.02032656 0.068172514 -0.040936723 0.064908154
0.09662234 0.0190163 0.04055474 -0.050016433 0.20185475 -0.04056255 0.062279027 -0.12340975
-0.082371965 0.029906984 0.07160069 -0.04095789 0.0145455925 0.09668557 -0.008871005 0.053384658
0.10704769 0.115787126 0.108435 -0.0466437 -0.06593346 0.12023239 0.074234664 -0.034098666
0.027326869 -0.034759764 -0.07706616 -0.008356635 0.14032128 -0.025688654 -0.002746812 -0.07234681
0.054038648 -0.013892412 -0.040071722 0.12616433 0.047875214 0.07331583 -0.007263945 0.07552225
0.061698552 0.035178203 -0.15976317 0.1415729 0.08211094 -0.04495639 0.016481074 0.11488989
0.013912242 -0.035718974 -0.02089009 0.056786764 0.02544989 0.02660138 -0.02595932 0.10849453
0.055313334 0.0020375815 0.16319916 0.025501153 -0.04126912 0.053714033 -0.03379802 0.07806634
0.06649453 -0.0016725137 -0.11416206 -0.04538971 0.087078705 -0.0793364 -0.108925804 0.089315526
0.08274662 0.07662033 -0.16681226 -0.13386089 -0.00045104392 -0.030267334 0.12348703 0.011469335
0.031820968 -0.043586336 -0.006056146 0.030283518 0.0786357 -0.08111649 0.10430777 0.071006
-0.17024474 -0.03730291 -0.051272336 0.11555747 0.054329712 -0.11342438 0.10563317 -0.021017846
-0.08977741 0.0148495855 0.03324862 0.1842977 -0.04528264 0.009514291 -0.03579527 -0.017373146
-0.0029710575 -0.08278282 -0.0469782 -0.04338198 0.030296288 0.10089538 -0.10022137 0.055233195
-0.25959387 0.1187007 0.043658238 0.022981877 -0.006382269 0.14027159 0.033453204 0.10392909
0.10001121 0.102859415 0.121524155 0.11529195 0.026354982 0.14130548 0.10654635 0.0865366
-0.01950758 0.06267828 -0.1219721 0.116196506 0.02232973 -0.0013964516 -0.11063532 -0.024315322
0.018551836 0.070310295 0.05184288 0.07389642 -0.02258622 -0.04740503 0.028068762 0.10476085
-0.1358435 -0.1269536 -0.08178965 0.13728 0.022937983 0.09759755 0.007310771 0.06798844
-0.104367025 -0.040331118 0.01752041 -0.08564793 -0.13574103 -0.14234476 0.061770603 0.10403642
0.015200746 -0.10578377 -0.109271735 -0.05942514 -0.08208502 -0.10411865 0.017625213 -0.055863965
-0.078856476 0.05646308 0.021632086 0.11851348 -0.054973062 -0.04927973 0.043516144 0.0023219397
0.015965356 -0.06417986 0.16972353 0.09691934 -0.009476664 0.016764479 0.014649327 -0.078357205
0.07930983 -0.06738203 -0.08163715 -0.0141824195 -0.041165806 0.040612545 0.09494205 -0.017781815
0.056176916 -0.006619969 0.16948883 -0.049766578 -0.03591597 -0.13004039 -0.02110728 -0.1058512
0.13809128 -0.017939951 0.14920631 -0.077065974 -0.052810594 -0.0017049246 -0.0041614072 0.09665618
00000000: 1b28 1e3d 371e 96bd 6408 69bc 63e0 dd3c
00000010: 2277 5abd c49f 723b fab8 f33d 6dfe 8f3b
00000020: da56 d9bd 7a97 ccbc d0bb 883d 56b9 51bc
00000030: c52a ca3d 38df aabc 2176 373d 660f 40bd
00000040: 2aa4 183e aa3b 92bd b3d0 20bd 6a93 003e
00000050: 2390 b0bd f2a2 d03d 6b04 7dbd 98c6 e03d
00000060: 5b9a 783c 556b c0bc e573 0c3c ce39 063c
00000070: d019 bfbd f2b0 7abd 37a0 bdbd 187d 3cbe
00000080: 97c6 9e3c 4a0f b23d e75b cebd de20 223e
00000090: ea58 2f3d e185 02be bdcf a2bb 10d4 66bd
000000a0: 4a81 673d d5bf f13d 9fe4 61bd 96b8 0c3e
000000b0: e383 a6bc 089e 8b3d 44ad 27bd 91ee 843d
000000c0: efe1 c53d 12c8 9b3c ba1c 263d 08de 4cbd
000000d0: 03b3 4e3e eb24 26bd 4b18 7f3d 40be fcbd
000000e0: a2b2 a8bd 7eff f43c 62a3 923d 76c3 27bd
000000f0: a350 6e3c 1603 c63d b157 11bc dfa9 5a3d
00000100: d23b db3d cd21 ed3d 2b13 de3d 770d 3fbd
00000110: 1f08 87bd 663c f63d 5808 983d 0bab 0bbd
00000120: 99dc df3c 4160 0ebd ddd4 9dbd 45ea 08bc
00000130: 62b0 0f3e 0371 d2bc dc03 34bb 902a 94bd
00000140: a157 5d3d 009d 63bc 3f22 24bd 3931 013e
00000150: cd18 443d 9c26 963d 6306 eebb 69ab 9a3d
00000160: 9fb7 7c3d 0517 103d f598 23be 7cf8 103e
00000170: c829 a83d 3124 38bd 5103 873c 644b eb3d
00000180: 2cf0 633c 0f4e 12bd b221 abbc 3d99 683d
00000190: 4a7c d03c 23eb d93c a4a8 d4bc 6132 de3d
000001a0: 3c90 623d f288 053b ae1d 273e cbe7 d03c
000001b0: cf09 29bd 3f03 5c3d cb6f 0abd 3fe1 9f3d
000001c0: 492e 883d 3f38 dbba cccd e9bd 90ea 39bd
000001d0: 5256 b23d 1f7b a2bd 7e14 dfbd 0feb b63d
000001e0: 0f77 a93d 1feb 9c3d d5d0 2abe d412 09be
000001f0: 177a ecb9 33f3 f7bc c5e6 fc3d e1e9 3b3c
00000200: b456 023d 9687 32bd a372 c6bb 2415 f83c
00000210: c10b a13d 6720 a6bd 509f d53d 986b 913d
00000220: a354 2ebe f0ca 18bd f102 52bd 65a9 ec3d
00000230: d588 5e3d 0b4b e8bd 3456 d83d 9e2d acbc
00000240: 38dd b7bd ad4b 733c b42f 083d 89b8 3c3e
00000250: 4a7a 39bd d4e1 1b3c 109e 12bd 2152 8ebc
00000260: 13b6 42bb 0a8a a9bd 376c 40bd 4eb1 31bd
00000270: ec2f f83c 3da2 ce3d dd40 cdbd 343c 623d
00000280: 7de9 84be 5a19 f33d fbd2 323d 7d44 bc3c
00000290: 5a22 d1bb 5ba3 0f3e 3a06 093d c6d8 d43d
000002a0: add2 cc3d f5a7 d23d a8e1 f83d 301e ec3d
000002b0: 67e6 d73c 62b2 103e f934 da3d 1a3a b13d
000002c0: 5cce 9fbc 785d 803d 82cc f9bd 6ff8 ed3d
000002d0: d7ec b63c 2409 b7ba c594 e2bd ed30 c7bc
000002e0: 05fa 973c d8fe 8f3d 3359 543d 0257 973d
000002f0: bd06 b9bc c72b 42bd 76f0 e53c db8c d63d
00000300: 8f1a 0bbe 2000 02be 5581 a7bd 2193 0c3e
00000310: 70e8 bb3c 39e1 c73d 318f ef3b 863d 8b3d
00000320: 61be d5bd 3e32 25bd f686 8f3c 2f68 afbd
00000330: b2ff 0abe d3c2 11be 2c03 7d3d 0c11 d53d
00000340: 8d0c 793c 29a5 d8bd dcc9 dfbd c767 73bd
00000350: 311c a8bd 293c d5bd c062 903c 9dd1 64bd
00000360: 817f a1bd d545 673d c635 b13c 32b7 f23d
00000370: 6f2b 61bd 8bd9 49bd fc3d 323d af2b 183b
00000380: c7c9 823c bb70 83bd 01cc 2d3e a67d c63d
00000390: 0244 1bbc a955 893c bb03 703c be79 a0bd
000003a0: 316d a23d 97ff 89bd 6131 a7bd 615d 68bc
000003b0: 7a9d 28bd 5759 263d fa70 c23d 2bab 91bc
000003c0: c419 663d 53ec d8bb 7b8e 2d3e 0ad8 4bbd
000003d0: a01c 13bd 4f29 05be 2de9 acbc 84c8 d8bd
000003e0: cd67 0d3e cef6 92bc 8ac9 183e c4d4 9dbd
000003f0: ec4f 58bd c777 dfba 6a5c 88bb adf3 c53d

layers.1.bias f4 [128]
-0.037525 0.00594821 -0.04360829 -0.039460953 -0.07004416 0.0914407 -0.02040653 0.10744099
0.06300821 -0.017500566 -0.023326753 0.025018284 -0.010882695 0.026062129 0.041989066 -0.045638155
0.025609659 -0.024518061 -0.008444675 0.028271189 -0.03262059 -0.025806 0.015579893 -0.00851719
-0.0055263876 0.017058086 0.007416285 0.07235837 0.034525003 0.008297546 -0.012749851 0.06818168
0.050182194 0.083869494 0.079329155 -0.03257264 0.063941605 0.10710918 -0.0022224896 -0.053042497
-0.033804458 0.0036688966 0.0074353474 0.030102096 0.14565377 0.015211361 0.10805034 0.0638187
0.06631619 -0.048938632 0.09381926 -0.11169159 -0.027236028 0.10478391 0.06745423 -0.008704729
0.07216057 0.10880186 0.012714253 -0.05034024 -0.010247095 -0.036108997 -0.029353486 0.1055291
0.093189694 0.015798664 0.018250493 0.017974164 0.08663913 -0.049471565 -0.034944896 0.01830852
0.026290724 0.065814815 0.0438928 0.020109223 -0.038884778 0.12212253 -0.05101968 -0.05655409
0.043133922 0.08995851 0.054769836 0.093507245 0.09579697 0.02699547 0.035809603 -0.018546402
-0.021870626 -0.00440545 0.08632324 0.016262079 -0.07415422 0.06247179 -0.059470396 0.045856483
0.1060931 0.037153598 0.0041525266 0.10782577 0.04729101 0.02756596 -0.013538304 -0.053070046
0.03218448 0.020109944 0.038710892 -0.021849096 0.112821795 0.04852457 -0.02707562 -0.027077021
-0.020247051 -0.034887236 -0.028798554 0.086131945 -0.037618075 0.09910176 0.057836354 -0.046641763
-0.009971626 0.036964513 -0.003522491 0.077524826 0.02919071 0.09621915 -0.003688355 -0.002291937
00000000: d0b3 19bd 34e9 c23b 9b9e 32bd cfa1 21bd
00000010: 5073 8fbd 4345 bb3d 982b a7bc 060a dc3d
00000020: 730a 813d 595d 8fbc bf17 bfbc 25f3 cc3c
00000030: 554d 32bc 3f80 d53c bafc 2b3d 13ef 3abd
00000040: 59cb d13c 1ada c8bc 895b 0abc fb98 e73c
00000050: 2b9d 05bd 1b67 d3bc cf42 7f3c af8b 0bbc
00000060: b316 b5bb 66bd 8b3c 4f04 f33b a030 943d
00000070: 176a 0d3d 6ef2 073c c0e4 50bc d6a2 8b3d
00000080: d88b 4d3d c5c3 ab3d 5377 a23d e36a 05bd
00000090: d1f3 823d 0f5c db3d 30a7 11bb 1743 59bd
000000a0: 8b76 0abd df71 703b 37a4 f33b ac98 f63c
000000b0: 4326 153e 1339 793c 7f49 dd3d 61b3 823d
000000c0: c8d0 873d e073 48bd 5024 c03d 8fbe e4bd
000000d0: 171e dfbc f298 d63d 7125 8a3d 489e 0ebc
000000e0: ecc8 933d 82d3 de3d 714f 503c 9131 4ebd
000000f0: 6ee3 27bc 07e7 13bd b976 f0bc a41f d83d
00000100: 3dda be3d 336c 813c 0f82 953c 8e3e 933c
00000110: db6f b13d b2a2 4abd 6122 0fbd c0fb 953c
00000120: a55f d73c ebc9 863d f0c8 333d 19bc a43c
00000130: a545 1fbd 611b fa3d 03fa 50bd 43a5 67bd
00000140: 32ad 303d 2b3c b83d 5656 603d ba80 bf3d
00000150: 3431 c43d 9b25 dd3c 17ad 123d a0ee 97bc
00000160: 072a b3bc 985b 90bb 3dca b03d 0d38 853c
00000170: 2bde 97bd 6be2 7f3d 3b97 73bd 02d4 3b3d
00000180: 5747 d93d 5f2e 183d eb11 883b c2d3 dc3d
00000190: 38b4 413d 02d2 e13c c3cf 5dbc fa5f 59bd
000001a0: e0d3 033d 9cbd a43c 508f 1e3d e0fc b2bc
000001b0: 1d0f e73d b3c1 463d b1cd ddbc a1d0 ddbc
000001c0: 25dd a5bc ebe5 0ebd f2ea ebbc f265 b03d
000001d0: 6915 1abd ddf5 ca3d d0e5 6c3d 6f0b 3fbd
000001e0: 0860 23bc 1a68 173d 98d9 66bb 56c5 9e3d
000001f0: 5b21 ef3c 8c0e c53d 54b8 71bb 5234 16bb

out.weight f4 [18, 128]
0.0015659408 0.060048092 0.02130481 -0.13710983 -0.061919924 -0.13754043 -0.014682276 0.09346253
0.07883123 0.040556084 -0.06253376 -0.029292831 -0.10811158 -0.13720441 0.094481155 -0.28428468
0.07925357 0.028218769 0.08704081 -0.043746773 0.072612934 -0.23626463 -0.10226103 -0.07412676
0.04362147 -0.07017988 -0.16211113 -0.08079745 0.10987282 0.11901776 -0.11905802 0.04329763
-0.06279918 0.09327405 -0.046466038 -0.0010423666 -0.20520994 -0.0955948 0.12517938 0.0074142385
-0.0848238 0.08180215 0.012371999 0.16459955 -0.083626464 -0.07908188 -0.06571823 -0.14811225
-0.011623468 -0.029884476 0.029172769 -0.026353855 -0.0031384064 0.10394353 0.016200244 0.08412452
-0.11416178 0.074200496 0.072362386 -0.20530744 0.051384367 0.013078294 -0.15679084 0.038285434
-0.17972401 -0.03705204 0.06370142 -0.07001095 0.017873187 -0.0533262 0.070705056 0.043008883
-0.011213784 0.018667962 -0.044143345 -0.007660363 -0.23660631 0.006790046 0.014562184 -0.11504192
-0.099272974 0.1421639 0.11427363 0.09828408 0.0077094217 0.022681199 0.0029421845 0.11961508
-0.0423399 -0.09864426 -0.120132424 0.06357543 -0.0060664844 -0.019839054 -0.15910862 -0.042974558
-0.061499577 0.0055252435 -0.10972487 0.1046232 0.044351786 0.0012930298 0.12285481 0.093529865
-0.21303406 -0.104661316 0.016509842 -0.11006629 -0.117940396 -0.13822392 -0.09994601 -0.14658043
-0.01168715 0.015634498 0.043847185 -0.23285624 -0.10129959 -0.05201093 -0.043900188 -0.1242389
-0.17118526 -0.022878805 0.050573684 -0.07023116 -0.17361253 0.008210992 -0.10354772 0.13502622
0.076920085 -0.008410729 0.01285333 -0.12288296 0.023175806 -0.06635783 -0.036704056 -0.14362271
-0.09563123 -0.0894254 -0.07683866 -0.051067457 -0.06498213 -0.07788734 0.09920638 -0.006710539
-0.06514022 -0.017254643 -0.1009015 -0.15146652 0.09279953 0.18422101 -0.09454188 -0.13979213
0.022183023 -0.0324627 0.020253504 -0.046761435 -0.116951756 0.13928978 -0.10617195 0.065212026
-0.0914847 0.058146223 -0.11626874 0.09366426 0.090768665 0.010036535 0.108053215 -0.1675382
0.087828256 -0.14892194 -0.03321537 -0.21726267 -0.021233128 0.081850916 0.057038017 -0.08078451
-0.16368276 -0.022495762 -0.019242398 0.036863606 0.0047645266 0.16347988 0.10030929 -0.1626526
-0.103222035 0.08445592 -0.13287042 0.09468344 -0.093710475 0.05058621 0.019155363 -0.14522411
-0.07703704 0.010714954 -0.068733804 -0.13313453 -0.07689129 -0.0140555175 -0.16641133 -0.0178508
-0.10944697 0.07730251 -0.21177028 0.12481417 0.038377862 0.058670513 -0.023538526 0.031964857
-0.10640537 0.00019644479 0.06408334 -0.09233694 0.027866317 -0.017121343 -0.014886641 4.787332e-05
-0.10592292 0.09448514 0.15891334 0.08160646 -0.074330844 0.08425747 -0.10096086 0.047889628
-0.12498527 -0.002747838 0.106762245 -0.031517453 0.018757232 -0.15368429 -0.09496487 -0.12927201
-0.19160837 -0.029472286 -0.043593287 -0.19311081 0.16406251 0.085005626 -0.058806267 0.06480679
-0.03489288 -0.017876476 0.12690108 -0.16330846 -0.032174718 0.07272485 0.033973634 -0.11072343
-0.19511665 0.050276 0.113826975 0.07897085 0.12131356 0.091262765 0.0691391 -0.0131076
00000000: 4140 cd3a fdf4 753d 6d87 ae3c 8566 0cbe
00000010: bf9f 7dbd 66d7 0cbe ee8d 70bc 4869 bf3d
00000020: 4572 a13d 231e 263d b311 80bd 85f7 efbc
00000030: 9b69 ddbd 507f 0cbe 567f c13d c38d 91be
00000040: b24f a23d 0c2b e73c 7442 b23d d12f 33bd
00000050: 17b6 943d 5bef 71be 3b6e d1bd c5cf 97bd
00000060: 6dac 323d 78ba 8fbd 7600 26be 2279 a5bd
00000070: 0005 e13d 95bf f33d b1d4 f3bd db58 313d
00000080: db9c 80bd 7706 bf3d 2c53 3ebd 05a0 88ba
00000090: 8e22 52be 35c7 c3bd 062f 003e 24f3 f23b
000000a0: 1ab8 adbd e387 a73d edb3 4a3c c98c 283e
000000b0: 5a44 abbd aef5 a1bd 4897 86bd bdaa 17be
000000c0: 5c70 3ebc 4ad0 f4bc bbfb ee3c 0ae4 d7bc
000000d0: b9ad 4dbb 58e0 d43d 60b6 843c 7a49 ac3d
000000e0: a7cd e9bd 6ef6 973d bb32 943d 1d3c 52be
000000f0: 6a78 523d 5746 563c c78d 20be 30d1 1c3d
00000100: 9209 38be e1c3 17bd e475 823d e761 8fbd
00000110: ca6a 923c 936c 5abd d0cd 903d 152a 303d
00000120: 05ba 37bc 8eed 983c a7cf 34bd c803 fbbb
00000130: ed48 72be 097f de3b 3a96 6e3c 199b ebbd
00000140: a14f cbbd 6a93 113e 4b08 ea3d 2a49 c93d
00000150: 519f fc3b eccd b93c aad1 403b c0f8 f43d
00000160: 9a6c 2dbd 0006 cabd fd07 f6bd d633 823d
00000170: 5cc9 c6bb 8385 a2bc 5fed 22be 1706 30bd
00000180: fbe6 7bbd 1a0d b53b 6fb7 e0bd b044 d63d
00000190: 38aa 353d e17a a93a 4d9b fb3d 968c bf3d
000001a0: 9a25 5abe ac58 d6bd a63f 873c 6f6a e1bd
000001b0: bc8a f1bd 928a 0dbe 7eb0 ccbd 2e19 16be
000001c0: 767b 3fbc eb13 803c 1b99 333d de71 6ebe
000001d0: 2976 cfbd 6a09 55bd afd0 33bd f770 febd
000001e0: 304b 2fbe 556c bbbc 5a26 4f3d 5bd5 8fbd
000001f0: 7cc7 31be 6687 063c d410 d4bd 5044 0a3e
00000200: 4788 9d3d 27cd 09bc c696 523c 10aa fbbd
00000210: 30db bd3c 9de6 87bd fe56 16bd d511 13be
00000220: 4eda c3bd aa24 b7bd 965d 9dbd 1c2c 51bd
00000230: 5a15 85bd 6683 9fbd b72c cb3d 15e4 dbbb
00000240: 3c68 85bd 9c59 8dbc 72a5 cebd 0a1a 1bbe
00000250: ae0d be3d 6fa4 3c3e 2c9f c1bd ab25 0fbe
00000260: 2cb9 b53c 9cf7 04bd adea a53c eb88 3fbd
00000270: 6784 efbd fba1 0e3e ae70 d9bd e28d 853d
00000280: 555c bbbd bc2a 6e3d 4e1e eebd 0cd3 bf3d
00000290: ece4 b93d 4770 243c 014b dd3d 228f 2bbe
000002a0: 4ddf b33d fe7e 18be d70c 08bd 1b7a 5ebe
000002b0: 19f1 adbc 74a1 a73d b2a0 693d 5972 a5bd
000002c0: 749c 27be 0849 b8bc 3ca2 9dbc 4bfe 163d
000002d0: bf1f 9c3b 4567 273e f56e cd3d 678e 26be
000002e0: 1366 d3bd 3af7 ac3d 2f0f 08be 64e9 c13d
000002f0: 47eb bfbd 7c33 4f3d b5eb 9c3c a1b5 14be
00000300: 98c5 9dbd c68d 2f3c 4fc4 8cbd 6b54 08be
00000310: 2e79 9dbd 1d49 66bc bb67 2abe d73b 92bc
00000320: bc25 e0bd c750 9e3d 4fda 58be 929e ff3d
00000330: 1b32 1d3d 7e50 703d ded3 c0bc 95ed 023d
00000340: 0feb d9bd bffc 4d39 203e 833d 261b bdbd
00000350: e747 e43c 0f42 8cbc 19e7 73bc 96cb 4838
00000360: 1eee d8bd 6d81 c13d 2eba 223e 4a21 a73d
00000370: c53a 98bd 2e8f ac3d 91c4 cebd ea27 443d
00000380: 47f8 ffbd 1215 34bb 2aa6 da3d 7218 01bd
00000390: c4a8 993c 6a5f 1dbe f17c c2bd e25f 04be
000003a0: fc34 44be dd6f f1bc e08e 32bd d7be 45be
000003b0: 0100 283e 6e17 ae3d d7de 70bd 6cb9 843d
000003c0: d6eb 0ebd b071 92bc 5bf2 013e 553a 27be
000003d0: a3c9 03bd c4f0 943d f027 0b3d f7c2 e2bd
000003e0: a9cc 47be 35ee 4d3d 1e1e e93d 78bb a13d
000003f0: 3e73 f83d f9e7 ba3d cd98 8d3d 42c1 56bc

out.bias f4 [18]
0.015860654 -0.007142825 0.04105193 0.040446162 -0.048396032 -0.0025966328 -0.02527546 -0.06766292
-0.01127159 0.06293977 -0.07807251 -0.083177365 -0.02321405 -0.05090466 0.06792818 -0.019057037
0.013086836 0.06840698
00000000: 34ee 813c 5c0e eabb 1226 283d e0aa 253d
00000010: eb3a 46bd 452c 2abb 7b0e cfbc db92 8abd
00000020: 7aac 38bc 91e6 803d 7be4 9fbd e558 aabd
00000030: 642b bebc 6881 50bd ee1d 8b3d 811d 9cbc
00000040: 2b6a 563c f518 8c3d
